MYSetup/best_neural_receiver_model.pth (torch, 324139 bytes, 14 tensors)

channel_estimator.0.weight f4 [64, 2, 3, 3]
0	0xbdc1a800	-0.094558716
1	0xbd015c46	-0.03158214
2	0xbda0f54b	-0.07859286
3	0xbe359f3f	-0.17736529
4	0xbd7face7	-0.062420752
5	0x3cbf00d1	0.023315819
6	0x3d05e068	0.032684714
7	0xbd744b44	-0.05964209
8	0xbe5302a7	-0.2060648
9	0xbc2a5810	-0.010396972
10	0x3c8c83cb	0.017152688
11	0xbe283f38	-0.16430366
12	0xbdd03df4	-0.101680666
13	0xbda603fd	-0.081062295
14	0x3e176b21	0.1478696
15	0x3d809939	0.06279225
16	0x3e0c0e5f	0.13677357
17	0x3a0688ad	0.00051320606
18	0x3d87f70f	0.066389196
19	0x3e50fedc	0.20409721
20	0xbcecb082	-0.02889276
21	0xbe1cff50	-0.15331769
22	0x3db351b2	0.087558165
23	0xbd8d6d43	-0.06905606
24	0xbdc94344	-0.09827283
25	0x39311838	0.00016889058
26	0x3d33c3a2	0.043887742
27	0x3b027b59	0.0019909947
28	0x3e57f3a2	0.21089032
29	0xbe0a1afb	-0.13486855
30	0xbd81c8c3	-0.063371204
31	0x3d6d2bbe	0.057903044
32	0xbc847684	-0.016169794
33	0x3dfeb051	0.124359734
34	0x3e4be5a7	0.19911824
35	0xbd58cb05	-0.05292799
36	0x3cb7c87d	0.022434467
37	0xbe62b6fa	-0.22140113
38	0xbddae42a	-0.1068805
39	0x3d40ad39	0.047040198
40	0x3d5edecf	0.054411706
41	0xbd6309c3	-0.05542923
42	0xbbb39ea0	-0.005481556
43	0x3c2351dd	0.009968248
44	0xbdc08a9d	-0.094014384
45	0xbe6cbe79	-0.23119535
46	0x3dc5cd92	0.0965835
47	0x3e0caed6	0.1373857
48	0x3e49b7bc	0.19698995
49	0xbe239f47	-0.15978728
50	0x3e22529b	0.15851824
51	0x3e2f634d	0.17127724
52	0x3d7c5d0d	0.061612178
53	0xbe43aca4	-0.19108826
54	0xbe5fc811	-0.21853663
55	0xbdfc1648	-0.12308937
56	0xbe40fcd6	-0.1884645
57	0xbe6237be	-0.22091576
58	0x3e625e95	0.22106393
59	0x3d8cc7a1	0.06874014
60	0x3ded997a	0.11601539
61	0x3e2c62bc	0.16834539
62	0x3e223a89	0.15842642
63	0xbdbf5faf	-0.09344422
64	0xba49c4b1	-0.0007696851
65	0x3e518eab	0.2046458
66	0x3e274cdb	0.16337912
67	0xbd9c8402	-0.07642366
68	0xbe1f22d3	-0.15540628
69	0xbd12be7a	-0.035826184
70	0x3d59ca32	0.053171344
71	0x3b9e33f0	0.004827969
72	0xbe5150b4	-0.20440942
73	0xbe4fef33	-0.20306091
74	0x3ddd892e	0.108171806
75	0xbcf790d3	-0.030220425
76	0xbe51e385	-0.20496948
77	0x3e195ec7	0.14977561
78	0x3c216dc9	0.009852835
79	0x394cb8c3	0.00019523785
80	0xbe41dd2d	-0.18932028
81	0xbe468b67	-0.19389115
82	0xbd7d08f3	-0.061776113
83	0xbbb7584c	-0.0055952426
84	0xbd1b8b83	-0.037974846
85	0xbd8828f4	-0.06648436
86	0x3c866dac	0.016409718
87	0x3e11d437	0.1424111
88	0xbe682a29	-0.22672333
89	0x3e351533	0.17683868
90	0xbda3dcc0	-0.08001089
91	0xbe3dfa83	-0.18552594
92	0xbe0977d7	-0.13424622
93	0xbe33e149	-0.17566408
94	0xbd9c12fc	-0.076208085
95	0xbd8aada6	-0.06771402
96	0xbe614742	-0.21999839
97	0x3e2eaf65	0.17059095
98	0x3e3e3476	0.185747
99	0xbd4ede72	-0.05050511
100	0xbe57feb6	-0.21093258
101	0x3dd8afff	0.105804436
102	0xbcf4fbde	-0.029905256
103	0xbd17edd9	-0.037092064
104	0x3d48a3f9	0.0489845
105	0xbc8f546e	-0.017496314
106	0x3d70ba93	0.05877168
107	0xbe0152ee	-0.12629291
108	0xbe270238	-0.1630944
109	0xbdad45df	-0.084605925
110	0xbcc1c092	-0.023651395
111	0xbe1b0fb7	-0.15142713
112	0x3e109ef5	0.14123137
113	0x3d4984f3	0.049199056
114	0xbdc2b61c	-0.09507391
115	0x3db94c1b	0.09047719
116	0x3e2e1bb6	0.17002758
117	0x3c4d3e46	0.012527054
118	0xbdfe790c	-0.124254316
119	0xbd99a5fb	-0.075023614
120	0xb9a49a32	-0.00031395402
121	0xbce334b8	-0.0277351
122	0x3e276813	0.16348295
123	0xbe3fc553	-0.18727617
124	0x3e39b992	0.18137196
125	0xba194da8	-0.00058480585
126	0xbe007e1b	-0.12548105
127	0xba90d2ea	-0.0011049185
128	0x3e65fc2c	0.22459477
129	0xbe45ea96	-0.19327769
130	0xbe1057df	-0.1409602
131	0x3e0203af	0.12696718
132	0x3e4c131d	0.19929166
133	0xbd0d9f69	-0.034575853
134	0x3e6ce1b4	0.23132974
135	0x3dd6c361	0.10486484
136	0x3dcb3c6c	0.09923634
137	0x3db566ca	0.08857496
138	0x3e25b072	0.1618059
139	0xbe3a17b4	-0.18173105
140	0x3c1b94c4	0.009495918
141	0x3d816e53	0.06319871
142	0x3e616d92	0.22014454
143	0x3dbb72a1	0.09152723
144	0xbdcf36ee	-0.10117899
145	0x3e5daf32	0.21648863
146	0x3e23aade	0.1598315
147	0xbd956c16	-0.072960064
148	0x3dfef103	0.12448313
149	0xbe1d3d69	-0.15355457
150	0xba8ed722	-0.0010897855
151	0x3dcfdf60	0.10150027
152	0x3e239ef8	0.1597861
153	0xbd0dfbff	-0.03466415
154	0x3db7c5a2	0.08973242
155	0x3cea136a	0.02857371
156	0x3d351755	0.044211704
157	0xbce40d72	-0.027838442
158	0x3dcd05f3	0.100109
159	0x3c415224	0.011799369
160	0xbe0cca78	-0.1374911
161	0xbe31c5e6	-0.17360649
162	0x3d835393	0.06412425
163	0x3e42b0fb	0.19012825
164	0x3e02b043	0.12762551
165	0xbdfb2c8e	-0.122643575
166	0x3e35c036	0.17749104
167	0x3d90dbcd	0.07073174
168	0x3ce99d9c	0.028517537
169	0xbe5a2a6a	-0.21305242
170	0xbe211a99	-0.15732802
171	0x3e254078	0.16137874
172	0xbdca29a8	-0.098712265
173	0xbe33c826	-0.1755682
174	0x3dd308e3	0.103044294
175	0x3d140337	0.03613588
176	0xbe66fecc	-0.22558135
177	0xbe5d54e0	-0.21614408
178	0x3e58223d	0.21106811
179	0x3e52fda5	0.2060457
180	0x3cdeccb9	0.027197229
181	0xbe46d74f	-0.19418071
182	0xbe2a1fae	-0.16613647
183	0x3e33042e	0.17482063
184	0xbda5c5c7	-0.08094364
185	0x3cba15a1	0.022715392
186	0x3d4db4d8	0.050221294
187	0x3d83e741	0.064405926
188	0x3d96eec5	0.073697604
189	0x3bb20244	0.005432399
190	0x3e111f9e	0.14172217
191	0xbd1ec730	-0.03876418
192	0x3d960bea	0.07326491
193	0xbe4645b3	-0.19362526
194	0x3da20512	0.07911123
195	0xbe09b845	-0.134492
196	0x3e0c171c	0.1368069
197	0x3b9c0bcf	0.00476215
198	0xbddf5966	-0.10905723
199	0xbda5a3c3	-0.08087876
200	0x3e3b4ba0	0.18290567
201	0xbe11edcf	-0.14250873
202	0x3d965bfe	0.07341765
203	0xbdf7507c	-0.12075898
204	0xbdc34b92	-0.09535898
205	0xbe344066	-0.17602691
206	0xbdea454b	-0.11438998
207	0xbe140b23	-0.14457373
208	0xbd11aa54	-0.03556283
209	0xbe6b91f1	-0.23004891
210	0xbb8554ec	-0.0040689614
211	0x3e12ad7b	0.1432399
212	0x3cd0dd5f	0.025496183
213	0xbe077de5	-0.13231619
214	0xbe1f8883	-0.15579419
215	0x3d9ae667	0.07563477
216	0xbc020bf2	-0.007937418
217	0x3df52ef0	0.11971843
218	0x3d78d1a8	0.06074682
219	0x3d170bab	0.03687636
220	0x3e2ef14e	0.17084238
221	0xbda523b5	-0.08063451
222	0x3e66d9e2	0.22544053
223	0x3d175fb6	0.03695651
224	0x3da92b2e	0.08260189
225	0xbd1cdd05	-0.03829672
226	0x3e0a3bef	0.13499425
227	0xbd672b13	-0.056437563
228	0xbe57a3d6	-0.21058592
229	0xbdc1811b	-0.09448453
230	0x3e1f1aa6	0.1553751
231	0xbd76d5fd	-0.06026267
232	0xba6ec838	-0.00091088144
233	0x3e3a8f3a	0.18218699
234	0xbd00c175	-0.031434495
235	0xbe185ce8	-0.14879191
236	0x3da145c0	0.07874632
237	0xbdce4da2	-0.10073401
238	0xbcda646b	-0.026659211
239	0x3e2c447e	0.16823003
240	0xbd0dad69	-0.034589205
241	0xbe0a4566	-0.13503036
242	0xbd06a5f4	-0.03287311
243	0xbc0a61b2	-0.008446144
244	0x3e5d653b	0.21620648
245	0xbd4001ad	-0.0468766
246	0x3e2de79c	0.16982883
247	0x3b7c593b	0.0038505334
248	0x3e05ae6b	0.13054816
249	0xbdb0f6eb	-0.08640846
250	0xbe31bec9	-0.17357935
251	0xbdce350e	-0.10068713
252	0x3d6f400e	0.058410697
253	0xbe59345d	-0.21211381
254	0xbe21ead2	-0.15812233
255	0x3c7d83b1	0.015473292

channel_estimator.0.bias f4 [64]
0	0xbdc65ab4	-0.09685269
1	0xbdd3c15f	-0.10339617
2	0xbd1a6197	-0.037690725
3	0x3e4ddb78	0.20103252
4	0xbe0646eb	-0.1311299
5	0xbe0dcf64	-0.13848644
6	0xbddb6eef	-0.10714518
7	0x3e20ce11	0.15703608
8	0xbdb98e1a	-0.09060307
9	0xbe4789a9	-0.19486107
10	0xbd47d96d	-0.048791338
11	0xbd1ce2f9	-0.038302395
12	0xbdbe132b	-0.09281
13	0xba1b577f	-0.00059258187
14	0x3e2915ec	0.16512269
15	0x3db578cc	0.08860931
16	0xbdb5bf7d	-0.08874414
17	0x3b4a1a2a	0.003083835
18	0x3da47eaf	0.080319755
19	0xbdabff09	-0.083982535
20	0x3de5eea3	0.11227157
21	0xbe2b00fc	-0.16699594
22	0xbdd403d6	-0.10352294
23	0xbd9c65a5	-0.07636575
24	0xbd7d80ed	-0.06189053
25	0xbd26dd51	-0.040738408
26	0x3a8cc4eb	0.0010739838
27	0x3e2f7d2d	0.17137595
28	0x3ca59715	0.020213643
29	0x3e0c9d1b	0.13731806
30	0xbd53fa0f	-0.051752146
31	0x3e4aaec9	0.19793238
32	0xbd665f82	-0.056243427
33	0x3ce68352	0.02813879
34	0xbc8458be	-0.016155597
35	0x3dcde553	0.10053506
36	0x3e5bba7f	0.21457861
37	0xbe51be22	-0.20482686
38	0xbe178d8c	-0.1480009
39	0x3de05f1b	0.1095564
40	0x3d1b8b63	0.037974726
41	0x3e3404d2	0.17579964
42	0xbde9c3a5	-0.11414269
43	0x3d479978	0.048730344
44	0xbb2c27e2	-0.002626889
45	0x3dd7fa6d	0.10545812
46	0xbcd4d3b8	-0.025979862
47	0x3e318109	0.1733438
48	0xbd77e4f9	-0.0605211
49	0x3cec5ece	0.0288538
50	0x3e37b0e9	0.1793858
51	0x3c9c9e7d	0.019118542
52	0x3d53b6a6	0.05168786
53	0x3e0d961b	0.13826792
54	0xbe2d6a0a	-0.16934982
55	0x3d3eec9e	0.046612374
56	0xbe2b66db	-0.16738455
57	0x3c81112c	0.015755259
58	0x3c67647d	0.014123079
59	0xb7bc72f8	-2.2464883e-05
60	0x3d8708f5	0.06593505
61	0x3e5607b1	0.20901372
62	0xbe3f6d0f	-0.18693946
63	0x3e181528	0.1485182

channel_estimator.3.weight f4 [64, 64, 3, 3]
0	0xba5a6426	-0.00083309633
1	0x3cbb407c	0.022857897
2	0x3bd69f6f	0.0065497677
3	0x373a3080	1.1097756e-05
4	0xbc4d03da	-0.012513125
5	0x3b504f1c	0.0031785434
6	0xb9f9faa3	-0.0004767972
7	0xbc976cec	-0.018484555
8	0xbceb4182	-0.02871776
9	0xbc4838d0	-0.012220576
10	0x3c88339b	0.01662617
11	0xbae0c3b0	-0.0017148163
12	0x3cb65c03	0.022260671
13	0xbd083ead	-0.033262897
14	0xbd043a93	-0.032282423
15	0x3c7b88a7	0.015352405
16	0x39b77cea	0.00034997548
17	0x3b89dce2	0.0042072395
18	0xbcefc320	-0.029267848
19	0xbce3e3bf	-0.027818559
20	0xba9053e2	-0.0011011327
21	0x3c04c556	0.008103689
22	0x3c7ce8b7	0.015436343
23	0x3ca69ac5	0.020337472
24	0xbc8a37c6	-0.016872298
25	0xbb9c7c9e	-0.0047755977
26	0xbcf530d1	-0.029930504
27	0x3b0e2f36	0.002169562
28	0xbd06b996	-0.032891832
29	0x3c04770f	0.008085026
30	0xbd0c3b92	-0.0342365
31	0xbc2bcac9	-0.0104853595
32	0x3cda466c	0.026644908
33	0xbc6a2f6d	-0.014293534
34	0xbcd8cdf7	-0.0264654
35	0xb73552d2	-1.0807724e-05
36	0xbc4efb0f	-0.012633099
37	0xbcea202f	-0.0285798
38	0xbb65c260	-0.0035058483
39	0x3cda33c5	0.026636014
40	0x3c241147	0.010013885
41	0x3c644498	0.01393237
42	0xbb52d6f2	-0.0032171574
43	0xbd0aa31b	-0.033846956
44	0xb9dcf2bc	-0.0004214252
45	0xba8b5b40	-0.0010632053
46	0x3ccc78a7	0.024959875
47	0x3b8aac58	0.0042319708
48	0x3a90672c	0.0011017076
49	0x3a5fc20b	0.00085356896
50	0xbcba1693	-0.022715842
51	0x3b20bdc6	0.0024527176
52	0x399b83de	0.00029662153
53	0x3a84a3a2	0.0010119567
54	0x390954c8	0.00013096922
55	0xbd1856ca	-0.037192143
56	0xbbd9d28d	-0.006647414
57	0x3c3a6f8c	0.011379134
58	0x3854d302	5.0741255e-05
59	0x3a8327b4	0.0010006339
60	0x3ba49eb9	0.005023804
61	0xbc21c6ff	-0.0098741045
62	0x3a3d5f35	0.0007223965
63	0xbd1585e5	-0.036504645
64	0x3c716155	0.014732678
65	0xba88e982	-0.0010445567
66	0xba8e51b4	-0.001085809
67	0x3a11febd	0.000556927
68	0x3c9f2f6d	0.019431794
69	0x3c26e151	0.010185556
70	0x3c0cec87	0.008601314
71	0x3c29c332	0.01036148
72	0x3a81da42	0.0009906965
73	0xbce7cd32	-0.028296087
74	0xbd1f1491	-0.038837973
75	0xba2bab46	-0.0006548654
76	0xbc859f8b	-0.016311428
77	0x3cbb3251	0.022851141
78	0xbcf903f8	-0.0303974
79	0x3cb8ae9c	0.022544198
80	0xbb962428	-0.004581947
81	0x39908e26	0.0002757173
82	0xbccafd93	-0.024779117
83	0xbce76f21	-0.028251233
84	0xbbfc788d	-0.0077048005
85	0xb98b4814	-0.00026565848
86	0x3a3e2534	0.00072534685
87	0x3c854690	0.016268998
88	0xb9bf6890	-0.00036508264
89	0xbd17de8a	-0.037077464
90	0xbcd5e717	-0.026111169
91	0xbbe3de0f	-0.0069539617
92	0x3cac9820	0.021068633
93	0xba863cd6	-0.0010241519
94	0xbc867039	-0.016410934
95	0xba365bd0	-0.000695643
96	0xbcb131db	-0.021630218
97	0xbcecfaac	-0.028928123
98	0xbbdc6d24	-0.0067268778
99	0xbd19beb0	-0.03753537
100	0x3c40983a	0.011755044
101	0xbcfdb5f5	-0.030970553
102	0xba36434c	-0.0006952777
103	0x3bd369d8	0.0064518265
104	0xbd1c90bf	-0.038223978
105	0xbc92a443	-0.017900592
106	0xbcdc7954	-0.026913323
107	0x3c76156d	0.015019757
108	0xbcf156b4	-0.029460289
109	0x3a4148b2	0.0007373198
110	0xbd20b595	-0.03923567
111	0x3c29cab5	0.0103632705
112	0xbcab057d	-0.02087664
113	0x3c90be34	0.01766882
114	0xbc7495f2	-0.014928328
115	0xbb97ddbd	-0.0046345876
116	0xbcee4b00	-0.029088497
117	0xba3f1aa1	-0.000729004
118	0xbd14c4e9	-0.0363206
119	0xb6d41940	-6.321032e-06
120	0x3c2b852f	0.010468765
121	0x3c31920e	0.010838045
122	0x39f70386	0.00047114136
123	0x3cb9522d	0.022622192
124	0xbc1eecee	-0.009700043
125	0x3b332280	0.0027333796
126	0x3c7af865	0.015318011
127	0xbc2580b0	-0.010101482
128	0x3c32767c	0.010892507
129	0x3b581496	0.0032971255
130	0x3c279689	0.0102287615
131	0xba9cb9e9	-0.0011957261
132	0xbca8807e	-0.020569082
133	0xbc317104	-0.010830168
134	0xba2f4854	-0.0006686498
135	0xb98511b6	-0.00025380932
136	0xbcc28cd2	-0.023748789
137	0x3ba3a5ca	0.004994129
138	0x3cd462eb	0.025926074
139	0xbd1f1f1d	-0.03884803
140	0x3c0a6c7d	0.008448717
141	0xbcc96a59	-0.024586843
142	0x3ce748e0	0.028232992
143	0xbb963b23	-0.0045846864
144	0x39a5a8c0	0.0003159698
145	0x3a15859a	0.0005703807
146	0x3cd81dfb	0.026381483
147	0x3cc803b0	0.02441582
148	0x395690b0	0.0002046253
149	0xbb305da2	-0.0026911278
150	0xbd0abafa	-0.03386972
151	0x39a105ae	0.00030712545
152	0xbb55b524	-0.003260919
153	0xbd0cacb6	-0.034344397
154	0x3c8ab84a	0.016933579
155	0xbcc5fc19	-0.024168061
156	0xbcd1b018	-0.025596663
157	0xbc7e318d	-0.0155147435
158	0x3c400deb	0.011722068
159	0x3ca7f6c2	0.020503405
160	0xbc85c4f4	-0.016329266
161	0x3ccf4bae	0.025304642
162	0xbd1984fb	-0.037480336
163	0x3c4a7764	0.0123575665
164	0x391209bc	0.00013927271
165	0x3ccd9fa3	0.025100535
166	0x3ca61651	0.020274313
167	0x3c1542a7	0.009110129
168	0xbc94fdb4	-0.018187381
169	0xbca7d955	-0.020489374
170	0x3cd186ce	0.025576975
171	0xbcb4c00f	-0.022064237
172	0xbd004a5b	-0.03132091
173	0xbbefa8fc	-0.0073138457
174	0x3c054021	0.008132965
175	0xbbe7255e	-0.007054015
176	0x3ce27f3f	0.027648566
177	0xbc8c9e99	-0.017165469
178	0xbc8dc248	-0.017304555
179	0xb9d59ce8	-0.0004074343
180	0xbbb49fcc	-0.0055122133
181	0xbb231839	-0.0024886264
182	0xbd1f455b	-0.038884502
183	0x3bf5f75e	0.007506295
184	0x3c0672e9	0.008206108
185	0xba8f9175	-0.0010953384
186	0x3c63992e	0.013891501
187	0xba9aefe4	-0.001182076
188	0x3a8fb80a	0.0010964882
189	0x3cde6e00	0.027152061
190	0xb93615af	-0.0001736495
191	0xbc9db40b	-0.01925089
192	0x3c34586c	0.01100741
193	0x3c78d999	0.015188598
194	0x3c1ff645	0.009763305
195	0x3a8bbcef	0.0010661165
196	0xbc72ad1b	-0.014811779
197	0xbd19b0fb	-0.037522297
198	0xbcadb4ec	-0.021204434
199	0xbc189dec	-0.009314995
200	0xbbcd41c7	-0.006263945
201	0xba8d23e2	-0.001076814
202	0x3a07c47c	0.000517912
203	0xbc9d63b4	-0.019212581
204	0x3b19ce6d	0.0023468987
205	0x3c8c2695	0.017108241
206	0x3c059ac5	0.008154576
207	0x3c9ad9f1	0.01890275
208	0x3c4c9740	0.012487233
209	0xbcd0846c	-0.025453769
210	0xba8fd429	-0.0010973263
211	0x3b891357	0.0041832137
212	0x3b19a95f	0.00234469
213	0x3c76357a	0.015027398
214	0xba8bef75	-0.0010676222
215	0x3c3b1f5c	0.011421051
216	0xbc9206fb	-0.017825594
217	0xbcc94975	-0.02457116
218	0xba916d96	-0.0011095281
219	0x39219dc4	0.00015412929
220	0x39ce366f	0.00039331938
221	0xbc589ac8	-0.0132204965
222	0xbc479d6d	-0.012183529
223	0xbc9536bb	-0.018214574
224	0xbc873586	-0.016505014
225	0x3b4c8665	0.0031208035
226	0xba8fdfcd	-0.0010976732
227	0xba36bfda	-0.0006971337
228	0xba478ebc	-0.00076125166
229	0x3c8d9d11	0.01728681
230	0xb9887e9a	-0.00026034267
231	0xb9508ae8	-0.00019888172
232	0xbc90e4b7	-0.017687185
233	0x3c0e2279	0.008675211
234	0x3a77904c	0.0009443804
235	0x3cd1d877	0.025615914
236	0xbc3f7e3b	-0.0116878105
237	0x3cb5f41b	0.022211125
238	0x3c819455	0.0158178
239	0x3a918e0c	0.0011104955
240	0x3c93afef	0.018028228
241	0xbc78cd60	-0.015185684
242	0x3c57b308	0.013165243
243	0xbc833c86	-0.01602007
244	0x3b78aa1d	0.0037943192
245	0xbc5808f2	-0.0131857265
246	0xbc4ba67f	-0.0124298325
247	0x3980fd5e	0.00024602836
248	0xbc5e44ba	-0.01356619
249	0x3c008dd5	0.007846315
250	0xbbbf8b7d	-0.0058454857
251	0xbb2d6006	-0.002645494
252	0xbbee5f50	-0.0072745457
253	0x3c8a31c1	0.016869428
254	0x3b05607a	0.0020351694
255	0xbcba6713	-0.022754228

channel_estimator.3.bias f4 [64]
0	0xba7da385	-0.00096755504
1	0x3ca8bca9	0.020597773
2	0x3a4e9219	0.00078800466
3	0x3ca73c35	0.020414451
4	0xbbeb5db5	-0.0071828016
5	0x3cb47155	0.022026697
6	0xbcaa7271	-0.020806523
7	0xbd0a4a61	-0.03376234
8	0xbc0f6cc7	-0.008753962
9	0xbcaf1ab7	-0.021375043
10	0xbcaebbcd	-0.021329785
11	0x3d030635	0.03198834
12	0xbcbb8759	-0.022891687
13	0x3aaa436b	0.0012990063
14	0x3cb6f7da	0.022334982
15	0xbcce1467	-0.025156213
16	0xbbf3aea6	-0.007436591
17	0x3cb6b2d6	0.022302072
18	0xba9b1ab0	-0.0011833515
19	0xb9e6369e	-0.00043909712
20	0x3c476d52	0.01217206
21	0xbcdf9ee1	-0.027297439
22	0x3ba17104	0.0049268026
23	0xbd0ee912	-0.034890242
24	0x3c8d1f66	0.017226886
25	0x3d15b0f7	0.03654572
26	0xbc9e728f	-0.019341735
27	0xba3a0fbb	-0.0007097681
28	0x3b8c9583	0.004290284
29	0x3b465009	0.0030260107
30	0x3d0ccfea	0.03437797
31	0xba81ac31	-0.0009893236
32	0x3cdbe8c1	0.026844384
33	0xbc11a7ad	-0.008890075
34	0xbc533fff	-0.012893676
35	0xbc283f12	-0.010268943
36	0x3d29e5bd	0.04147886
37	0xbd148cb8	-0.036267012
38	0x39f77b02	0.0004720316
39	0xbb937b5c	-0.0045007896
40	0x3c166715	0.00917985
41	0x3b4573aa	0.0030128756
42	0xb79bbda0	-1.856574e-05
43	0xba3c54aa	-0.0007184247
44	0x3c33477f	0.010942339
45	0xbcaacf56	-0.020850819
46	0x3a318ced	0.0006773014
47	0x3a60c818	0.0008574738
48	0xba907b61	-0.0011023098
49	0x3cb50cf5	0.022100905
50	0x3d09a113	0.033600878
51	0x3d266663	0.040624987
52	0x3ac7e74a	0.0015251425
53	0x3c47b676	0.012189498
54	0xbbdd2d62	-0.006749795
55	0xbccbb670	-0.024867266
56	0xbd1d8492	-0.038456507
57	0x3cfc0aac	0.030766807
58	0x3cfc965a	0.030833412
59	0x3c116676	0.008874526
60	0xb9dead8c	-0.00042472442
61	0xb8b70562	-8.7271226e-05
62	0x3b55a1b3	0.00325976
63	0x3b0583c2	0.0020372723

channel_estimator.5.weight f4 [2, 64, 3, 3]
0	0x3a918fa3	0.0011105429
1	0xb82402ac	-3.9103135e-05
2	0x3cb6a5e0	0.022295892
3	0x3c5bafc5	0.013408606
4	0xba332385	-0.0006833601
5	0xb96494c9	-0.00021799201
6	0xbc9391d0	-0.018013865
7	0xbb57994a	-0.0032897764
8	0xbbd553cc	-0.0065102335
9	0xbcd89280	-0.026437044
10	0xb9c50956	-0.00037581724
11	0x3d1e6db5	0.038678844
12	0xbb9407d9	-0.004517537
13	0xbcbde2f6	-0.023179512
14	0xbc22955b	-0.009923304
15	0x3cca45ad	0.024691427
16	0xbbe1e640	-0.006893903
17	0xb60a6840	-2.0624284e-06
18	0x3c70b2a5	0.01469103
19	0xbc595ec2	-0.013267221
20	0xbcd88669	-0.02643128
21	0x3c33b97f	0.010969519
22	0xbccdd909	-0.025127904
23	0x3cff3c28	0.031156614
24	0xbbff2c62	-0.0077872733
25	0x3c683ce2	0.014174672
26	0x3c2f1aa4	0.010687504
27	0xbcc565b5	-0.02409635
28	0xbc31483f	-0.0108204475
29	0x3d0a2472	0.033726163
30	0xbc55c281	-0.013046862
31	0xbc4d4867	-0.012529469
32	0xbca2156e	-0.01978561
33	0xbcdd0347	-0.026979102
34	0x39f6eeea	0.0004709878
35	0x3cab21e8	0.020890191
36	0xbccf37b8	-0.025295123
37	0x3be807c5	0.0070810043
38	0xbc5e3916	-0.013563415
39	0x37969660	1.7951417e-05
40	0x3d1b6fe3	0.0379485
41	0x3c864036	0.01638804
42	0x3d13953f	0.036031004
43	0x3b7bea3f	0.0038439182
44	0x3d03ba9d	0.03216039
45	0x3ae993ee	0.0017820576
46	0x3a29315f	0.0006454195
47	0x3d2a7d80	0.041623592
48	0xbbc15c33	-0.0059008836
49	0x3a839446	0.0010038696
50	0x3cb51bc7	0.022107972
51	0x3ba3147f	0.0049768086
52	0xbb83e431	-0.0040250053
53	0x3aab1e5e	0.0013055315
54	0x3cb3d162	0.021950427
55	0x3c3df674	0.011594404
56	0x3cc00863	0.0234415
57	0xb6624080	-3.3714168e-06
58	0xbb2d0acb	-0.0026404138
59	0x3d2d0066	0.042236708
60	0x3ca42219	0.02003579
61	0xbc3fe0a1	-0.011711271
62	0x3c0b2099	0.008491659
63	0xba8068a2	-0.0009796808
64	0xbcc0fa76	-0.02355693
65	0xba18c8f0	-0.0005828282
66	0x3d0c35a2	0.034230836
67	0xbb2c6df7	-0.0026310661
68	0x3b3465d2	0.002752651
69	0x371501f4	8.881547e-06
70	0x3c6f6520	0.014611512
71	0xbccbfb54	-0.024900116
72	0x3ab4972a	0.001377796
73	0x3c7fe4ff	0.015618562
74	0xbc8b6bd0	-0.017019182
75	0x3ced93e5	0.029001186
76	0xbccc9950	-0.024975449
77	0x3d219345	0.039447088
78	0x3c8338ec	0.016018353
79	0x3c87e2d6	0.016587656
80	0x3abf32fa	0.0014587336
81	0xbb005d6e	-0.0019586938
82	0x3c9cdc55	0.019148031
83	0x3b4d7a45	0.0031353396
84	0x3a6e8e5c	0.00091001927
85	0x3d1d1f21	0.038359765
86	0x3b67527f	0.0035296974
87	0x3bc2d6ef	0.0059460322
88	0x3ca74c79	0.020422207
89	0xbc936d59	-0.017996477
90	0x3cacdd54	0.021101631
91	0x3b8a0a53	0.0042126565
92	0xbc991342	-0.01868594
93	0xbc5eadc8	-0.013591237
94	0xbc77920d	-0.015110505
95	0xbca37ae5	-0.019956062
96	0x3c12d1cf	0.008961155
97	0xbce41100	-0.027840137
98	0x3d207861	0.039177302
99	0x3d17e114	0.037079886
100	0x3a20e549	0.0006137682
101	0xbc89b5e6	-0.016810369
102	0xb99c3062	-0.00029790687
103	0x3c1a1f9a	0.009406948
104	0xbbb6ae08	-0.0055749454
105	0x3c483f97	0.012222192
106	0xbb4f4ff8	-0.0031633358
107	0x3a828334	0.0009957314
108	0x3d1090a0	0.035294175
109	0x3c50bdcc	0.012740564
110	0xb7032b80	-7.818337e-06
111	0x3c9e1714	0.019298114
112	0xbb8b0382	-0.0042423615
113	0x3c9ee3aa	0.019395668
114	0x3d1f2cd7	0.038861122
115	0x3c65b0ce	0.014019204
116	0x3cbdc108	0.023163334
117	0x38737dc0	5.805283e-05
118	0x3d1c1a86	0.038111232
119	0xbc9868a8	-0.018604591
120	0x3b941f6b	0.004520347
121	0x3cbfa22d	0.023392761
122	0x3b8b1e10	0.004245527
123	0x3b35e776	0.002775637
124	0x3d06f871	0.032951776
125	0xb8314286	-4.2262043e-05
126	0xbc53d2dd	-0.012928692
127	0x3782f072	1.5609174e-05
128	0xbbe7dc6c	-0.007075837
129	0x3c81e5d1	0.015856655
130	0xbc9c2331	-0.01905975
131	0x3c908f6e	0.017646518
132	0x3cbf4a43	0.02335084
133	0x3cfe1595	0.03101615
134	0x3c73d91f	0.014883309
135	0x3ad9872d	0.0016596072
136	0x3c386684	0.01125491
137	0xbba8287f	-0.0051317806
138	0x3ceb997d	0.028759712
139	0x3d1c062b	0.03809182
140	0x3cdcff08	0.026977077
141	0x3ae4d3a4	0.0017458093
142	0x3c0015f8	0.007817738
143	0x3d061574	0.032735303
144	0xbc8c914d	-0.017159129
145	0x3ccd60a2	0.025070492
146	0x3ccafbf8	0.024778351
147	0xbca05e73	-0.019576287
148	0x3c09d7c0	0.008413255
149	0x3a0d5976	0.0005392054
150	0x3b368d9a	0.0027855397
151	0xbc65ebfd	-0.014033315
152	0x3cf56fd5	0.029960552
153	0x3d2787d1	0.04090101
154	0x3a599461	0.0008300003
155	0x3c8ec3b2	0.0174273
156	0x3d27bc96	0.040951334
157	0xbb9d70f4	-0.004804725
158	0xbcc7b82f	-0.024379818
159	0xbc50b109	-0.012737521
160	0x3d1b7905	0.03795721
161	0x3cabed55	0.020987192
162	0x3cd7455e	0.026278194
163	0xbc0914ba	-0.008366758
164	0xba8b3c9a	-0.0010622919
165	0xbcd00e12	-0.025397334
166	0x3c798129	0.015228548
167	0xbc15549a	-0.009114409
168	0x3c4592b0	0.012058899
169	0xbcb97478	-0.022638544
170	0x3c2e1e10	0.010627285
171	0x3d07680b	0.033058207
172	0x3cf940ff	0.0304265
173	0xbc1c636e	-0.00954519
174	0xbcbdbdd3	-0.023161804
175	0x3c3557f8	0.011068337
176	0x3ad3bd52	0.0016154444
177	0x3d071132	0.032975383
178	0x3c12c34a	0.008957693
179	0x3c68bd2f	0.014205261
180	0x3c396357	0.011315188
181	0xbbb3c326	-0.00548591
182	0x3d2b5be5	0.041835684
183	0x3ca83460	0.020532787
184	0x3cfd7528	0.030939654
185	0x3d3456aa	0.04402796
186	0x3ce1db74	0.027570464
187	0xbba46030	-0.0050163493
188	0x3cb785d7	0.022402687
189	0xbc942bdc	-0.01808732
190	0x3b572a95	0.0032831777
191	0x3a915fae	0.0011091137
192	0x3c9a5912	0.0188413
193	0xbc932a84	-0.017964609
194	0xbcd719b6	-0.026257377
195	0xbc0033f6	-0.007824888
196	0x3b3eca53	0.0029112294
197	0xbc3a87c7	-0.011384911
198	0xbb7cb6ac	-0.003856103
199	0x3aa46c8a	0.0012544554
200	0x3d033df0	0.03204149
201	0x3c56495d	0.013079015
202	0x3c884c1c	0.016637854
203	0x3b0537d6	0.002032747
204	0xbc92b638	-0.017909154
205	0x3a7feda8	0.00097628916
206	0x3d0e0248	0.034670144
207	0x3be6d748	0.0070447065
208	0xbc3f00c7	-0.0116579
209	0x3cd06859	0.025440382
210	0x3c6b8e06	0.014377123
211	0xbcaa055d	-0.02075451
212	0x3caf85d6	0.021426123
213	0xbc90db17	-0.017682595
214	0xbacb49a0	-0.0015509613
215	0x3a55983b	0.0008147989
216	0x3a8ef457	0.0010906559
217	0x3d21d67f	0.0395112
218	0x3a084f26	0.00051997823
219	0xbc50684e	-0.012720181
220	0x3c19cd8a	0.009387383
221	0x3c561397	0.013066194
222	0xbc67ec38	-0.01415544
223	0x3c555f1a	0.013023162
224	0x3b46a14b	0.003030854
225	0x3c919036	0.01776896
226	0xbcb6ae9e	-0.02230006
227	0x3975151c	0.00023372885
228	0x3bad6913	0.005292067
229	0x3cc579e2	0.02410597
230	0x3ccf65b7	0.025317056
231	0x3b980f1f	0.0046404744
232	0xbc01f7b4	-0.007932592
233	0x3aec6326	0.001803492
234	0xbc81ed37	-0.015860183
235	0x3a913b2b	0.0011080255
236	0x3cd080be	0.025452014
237	0x3a24ac79	0.0006281804
238	0x3c009f27	0.007850445
239	0xba6d0876	-0.00090420933
240	0x3c9d4161	0.019196214
241	0xbc69d357	-0.014271579
242	0xbcbb632b	-0.022874435
243	0xbcad5252	-0.021157417
244	0xbb658659	-0.0035022704
245	0xbcdca1d8	-0.026932642
246	0x3d0099f8	0.031396836
247	0x3cc0a398	0.023515508
248	0xbcd62bf8	-0.026144013
249	0x3a87b99f	0.0010355002
250	0xbb31a3e5	-0.0027105745
251	0x3a3addd4	0.0007128392
252	0x3d2689ad	0.04065864
253	0xbc1612dc	-0.00915977
254	0xbcc34365	-0.023835847
255	0xbcb9ed0e	-0.022696044

channel_estimator.5.bias f4 [2]
0	0xba697327	-0.00089054037
1	0xbd018567	-0.031621363

equalizer.0.weight f4 [64, 4, 3, 3]
0	0xbddcbba5	-0.10777978
1	0x3d5d7c9f	0.054073926
2	0x3a95ae7a	0.0011419796
3	0xbc5d2f1c	-0.013500001
4	0xbd9a2370	-0.075262904
5	0xbda826f2	-0.08210553
6	0xbe01848f	-0.12648223
7	0xbdc511ba	-0.09622522
8	0x3a8e1a81	0.0010841639
9	0xbdccda3f	-0.10002565
10	0x3d736661	0.059423808
11	0x3d602269	0.054720316
12	0x3e13ab54	0.14420825
13	0xbd1c6329	-0.038180504
14	0x3dcb0292	0.099125996
15	0xbdfc8a3d	-0.12331054
16	0x3caaded0	0.020858198
17	0x3e073e1c	0.13207287
18	0x3daa5590	0.08317101
19	0xbd28119f	-0.04103243
20	0x3e008d48	0.12553895
21	0x3ddb7721	0.107160814
22	0x3e1114b4	0.14168054
23	0x3ddc8ba8	0.10768825
24	0xbc6c8ee7	-0.014438367
25	0xbde67c19	-0.112541385
26	0xbb09d26e	-0.0021029967
27	0x3d5f88e3	0.054573905
28	0xbc34d068	-0.011036016
29	0xbd52c1f6	-0.051454507
30	0xbd2264fa	-0.03964708
31	0xbdea1409	-0.11429603
32	0xbd3646be	-0.04450106
33	0x3dd992d8	0.10623711
34	0xbe0e02f5	-0.13868316
35	0x3e0761f7	0.13220964
36	0xbe120ad9	-0.1426195
37	0xbde38210	-0.11108792
38	0xbc6f998c	-0.014624011
39	0x3e0ff19a	0.14057007
40	0x3d0068aa	0.031349815
41	0xbce5999f	-0.028027354
42	0xbd30d74e	-0.04317408
43	0x3dc40846	0.095718905
44	0x3d78a2f2	0.06070227
45	0xbe010b5d	-0.12601991
46	0x3e192344	0.14954859
47	0x3d3d272a	0.046179928
48	0xbd097fe6	-0.03356924
49	0x3d07dd61	0.033170108
50	0x3e0636ad	0.13106795
51	0xbd9f5a63	-0.07780912
52	0xbdf80ea5	-0.12112168
53	0x3db77258	0.08957356
54	0x3dc68e4f	0.09695112
55	0x39e1cb4c	0.00043066812
56	0x39d2d025	0.000402094
57	0xbd478ee5	-0.04872026
58	0x3e1a1c8c	0.15049952
59	0x3df819b9	0.12114281
60	0xbcf130bd	-0.029442186
61	0x3d695a92	0.05697114
62	0xbd8e3f94	-0.0694572
63	0x3d1490cf	0.036270913
64	0x3e1e2988	0.1544553
65	0xbdd8cf92	-0.10586466
66	0x3d8b0ca7	0.067895226
67	0xbdbf9374	-0.09354296
68	0xbe0cfe3d	-0.13768859
69	0xbc230b79	-0.009951466
70	0xbe011454	-0.12605411
71	0x3d9d22fe	0.0767269
72	0x3dc7071f	0.09718155
73	0xbdaa6d92	-0.0832168
74	0xbdd54c84	-0.10414985
75	0xbdac4fda	-0.08413668
76	0xbdfe4331	-0.124151595
77	0x3d292421	0.04129422
78	0x3d810f88	0.063017905
79	0x3dfa12a3	0.12210586
80	0xbdfebc84	-0.124383
81	0x3ca9298f	0.0206497
82	0x3e196e6e	0.14983532
83	0xba94aec5	-0.0011343589
84	0xbe0c1838	-0.13681114
85	0x3a764902	0.0009395034
86	0xbd0da875	-0.03458448
87	0xbe107470	-0.14106917
88	0xbaef2b7c	-0.0018247212
89	0x3d92a1b4	0.07159749
90	0xbda700bf	-0.08154439
91	0x3b16b6fd	0.0022997253
92	0xbdf510dc	-0.11966106
93	0x3e063c7a	0.13109007
94	0x3d80fb31	0.06297911
95	0xbd04afed	-0.03239434
96	0x3e0f52ac	0.1399638
97	0x3d85ff0c	0.06542787
98	0x3dbcef24	0.092253
99	0x3d85fcd7	0.06542366
100	0x3cc041c9	0.023468869
101	0xbdfc5c2b	-0.12322267
102	0x3e1ea8b6	0.15494046
103	0xb90cd028	-0.00013428985
104	0x3dc7cd7a	0.097559884
105	0x3dfdcbd0	0.1239239
106	0xbd6239e0	-0.055230975
107	0xba4d5b20	-0.0007833708
108	0xbccc9246	-0.024972092
109	0xbc15db16	-0.009146472
110	0x3a8b7392	0.0010639301
111	0xbd584346	-0.052798532
112	0x3b940f68	0.004518438
113	0x3de705a1	0.112803705
114	0xbd9561b4	-0.07294026
115	0x3d869f9d	0.065734126
116	0xbdae7d71	-0.0852002
117	0x3daf9f00	0.08575249
118	0xbe117a2e	-0.14206764
119	0xbdd7953e	-0.105265126
120	0xbdbe1c4b	-0.0928274
121	0xbdaf8a11	-0.08571256
122	0xbdecba24	-0.11558941
123	0x3ddc51d9	0.10757799
124	0xbdc07012	-0.09396376
125	0x3b42dc61	0.0029733407
126	0x3c9b2e9f	0.01894313
127	0x3d801949	0.06254823
128	0xbd9b3a1a	-0.07579441
129	0xbdc032bc	-0.09384677
130	0x3dc01a52	0.0938002
131	0x3d70f105	0.058823604
132	0x3df9b96f	0.12193572
133	0xbdf90b74	-0.12160388
134	0x3da7e20f	0.08197414
135	0x3e060b3c	0.13090223
136	0x3a66b106	0.0008800182
137	0x3d2761d6	0.040864788
138	0x3c9a0039	0.018798934
139	0x3c504271	0.012711153
140	0x3a78ff35	0.0009498478
141	0x3d81b7a2	0.06333853
142	0x3cbfe7a5	0.023425886
143	0xbdd2c3df	-0.10291266
144	0x3a78fd1e	0.00094981666
145	0xbdabb634	-0.08384362
146	0x3e017a44	0.12644297
147	0x3ca7e742	0.020496015
148	0x3d1db118	0.038498968
149	0x3c934d43	0.017981177
150	0xbd3381f6	-0.043825112
151	0xbe113bc9	-0.14182962
152	0x3d11da1f	0.035608407
153	0xbe27f01e	-0.16400191
154	0xbc41cc8a	-0.011828551
155	0x3d5cec0c	0.05393605
156	0x3db52ed9	0.08846826
157	0xbcd9bf33	-0.026580429
158	0x3dd606da	0.104505256
159	0x3dd94b9d	0.10610125
160	0x3e290058	0.16504037
161	0x3d7699ac	0.060205147
162	0x3db2d96e	0.08732878
163	0xbd9aabdf	-0.07552313
164	0xbc1d36b1	-0.009595559
165	0x3e1c48e6	0.15262184
166	0xbccbe7e4	-0.024890848
167	0xbe039109	-0.12848295
168	0xbdab587c	-0.083664864
169	0xbda548a6	-0.08070497
170	0x3e235502	0.15950397
171	0x3d59c339	0.053164694
172	0xbd217d18	-0.03942594
173	0xbd60e89a	-0.054909326
174	0xbdfbda77	-0.12297528
175	0xbdf5701b	-0.11984273
176	0x3e08ea13	0.13370542
177	0xbdb6be40	-0.08923006
178	0xbd2e1fb8	-0.042510718
179	0x3d0597c8	0.032615453
180	0x3d56d25b	0.052446704
181	0xbd99fdda	-0.075191215
182	0x3de74b85	0.11293701
183	0x3d89ccde	0.067285284
184	0x3e199046	0.14996442
185	0x3dac367c	0.084088296
186	0x3e1ef1c5	0.15521915
187	0xbdd55928	-0.10417396
188	0x3a6ce08b	0.0009036145
189	0xbd9c2766	-0.07624702
190	0xbdefb987	-0.117053084
191	0xbd3499d4	-0.044092014
192	0xbe1a817a	-0.15088454
193	0x3cda6be8	0.026662782
194	0xbd58eda4	-0.052961007
195	0xbc90c0cf	-0.017670063
196	0xbdb873ee	-0.09006487
197	0xbd2e6693	-0.04257829
198	0x3e1de1f2	0.15418223
199	0x3d8ed3be	0.0697398
200	0x3d4465f0	0.047948778
201	0x3daf63d1	0.0856396
202	0x39c9ced3	0.00038491804
203	0xbd57dd70	-0.052701414
204	0x3dc27f69	0.09496958
205	0xbe036d54	-0.12834674
206	0x3d6cc777	0.057807412
207	0xbda5e192	-0.08099665
208	0x3db09515	0.08622185
209	0xbe1ddd24	-0.1541639
210	0x3b274b96	0.002552723
211	0xbe1eaa7e	-0.15494725
212	0xbdd73302	-0.10507776
213	0x3dd9ba49	0.10631234
214	0xbcb57d42	-0.022154454
215	0x3dbcdea1	0.092221506
216	0x3d2e76cc	0.042593762
217	0x3c8007a3	0.015628641
218	0x3b481695	0.0030531038
219	0x3de8b0df	0.113618605
220	0xbe0663fa	-0.13124076
221	0x3e0d6d49	0.1381122
222	0x3e0847f2	0.13308695
223	0x3d88b797	0.06675642
224	0xbd6c8eaa	-0.057753243
225	0xbd44ba43	-0.048029196
226	0x3db666da	0.08906336
227	0x3d52c71f	0.051459428
228	0xbe08d5ef	-0.13362859
229	0xbbd99a59	-0.006640714
230	0x3cdec3d2	0.027192984
231	0x3c9a2255	0.018815199
232	0xbcde3dd4	-0.027129091
233	0x3dca59e4	0.098804265
234	0xbd18248f	-0.03714424
235	0x3dc35d95	0.09539334
236	0xbcefb664	-0.029261775
237	0x3d0dd08b	0.03462271
238	0x3d76c335	0.060244758
239	0x3e22cd68	0.15898669
240	0xbce3949c	-0.027780823
241	0x3df4fa99	0.1196186
242	0x3e175f6b	0.14782493
243	0xbe23d27d	-0.15998264
244	0x3cc41877	0.023937447
245	0x3d9c69b6	0.0763735
246	0xbdad6f1b	-0.08468457
247	0x3de4c5e4	0.11170557
248	0xbde29aed	-0.11064706
249	0x3d6c4985	0.0576873
250	0x3d9003c4	0.07031968
251	0x3d26af20	0.040694356
252	0x3bfb35bb	0.0076663173
253	0xbda69588	-0.081339896
254	0x3c99ef1c	0.018790774
255	0x3d2dd198	0.042436212

equalizer.0.bias f4 [64]
0	0xbd1a105a	-0.03761325
1	0x3e16a26b	0.14710395
2	0x3e12bf0f	0.14330696
3	0x3e2a3103	0.16620259
4	0xbc6256f3	-0.013814676
5	0xba80962e	-0.0009810382
6	0x3da22eea	0.079191044
7	0xbe056eb4	-0.13030511
8	0x3dc3c0a7	0.0955823
9	0x3d91cf66	0.07119636
10	0x3e1c126d	0.15241404
11	0x3d89752f	0.06711804
12	0x3e0c591d	0.13705869
13	0x3dffedc3	0.12496521
14	0xbe19447f	-0.14967535
15	0x3a882bb4	0.0010389001
16	0x3db6393f	0.088976376
17	0x3da92b3d	0.082602
18	0xbdf50e29	-0.119655915
19	0x3df45c1a	0.119316295
20	0xbe036dda	-0.12834874
21	0x3c33b195	0.010967632
22	0xbdb046b4	-0.086072356
23	0xbd869444	-0.06571248
24	0x3e116a9c	0.14200824
25	0xbcf62fe8	-0.03005214
26	0x3a7263d1	0.0009246441
27	0x3e10a1d8	0.14124238
28	0xbd1fddb2	-0.039029785
29	0xbd1f38a3	-0.038872372
30	0x3dcbc2a0	0.09949231
31	0xbda7f900	-0.0820179
32	0xbdba6e37	-0.09103053
33	0xbe080e54	-0.13286716
34	0x3d855d8a	0.06511982
35	0xbc9c3429	-0.01906784
36	0xbe03b06f	-0.12860273
37	0x3dee8d60	0.11648059
38	0x3d9cc302	0.07654382
39	0x3e188ee9	0.14898266
40	0xbdc405c7	-0.095714144
41	0x3db1a281	0.08673573
42	0xbddb64b4	-0.10712567
43	0xbca5dab5	-0.02024589
44	0xbdcbf2b5	-0.09958402
45	0xbde67f2f	-0.11254727
46	0xbe00d440	-0.12580967
47	0xbd9dc8ca	-0.07704313
48	0x390fcd00	0.00013713911
49	0xbc5cbfda	-0.013473475
50	0xbccc5fde	-0.024948057
51	0x3cc0ea21	0.023549141
52	0x3e05bedd	0.1306109
53	0x3e264f87	0.16241275
54	0xbc88ce7f	-0.016700028
55	0xbd2c4194	-0.042054728
56	0x3d839a2f	0.064258926
57	0xbd58e1b2	-0.052949615
58	0xbdc9b113	-0.09848227
59	0xba8d6fb4	-0.0010790736
60	0x3e0cb1a1	0.13739635
61	0x3c985f9e	0.018600281
62	0xbe22d774	-0.15902501
63	0x3e099bbe	0.13438317

equalizer.2.weight f4 [64, 64, 3, 3]
0	0x3bc6329d	0.006048514
1	0xba59ea2b	-0.0008312787
2	0x3ae54d86	0.0017494417
3	0x3938d8e0	0.000176284
4	0x3a19c6ce	0.0005866111
5	0xbcab1a6b	-0.02088662
6	0x3c0b44ff	0.008500337
7	0x3a178cb9	0.0005781162
8	0xbb86ba25	-0.0041115456
9	0xbcf1d723	-0.02952153
10	0x3bf03bcb	0.0073313466
11	0x3cbd61d3	0.023117935
12	0x3cd2d512	0.025736365
13	0x3c78547a	0.0151568595
14	0x3a8f30d8	0.0010924591
15	0xbc0d41c6	-0.008621639
16	0x3c418050	0.011810377
17	0xbb49ad58	-0.0030773487
18	0xbccc243b	-0.02491962
19	0x3c8621cf	0.016373543
20	0xba5731fe	-0.00082090485
21	0x3bd0365a	0.0063541355
22	0x3ab78d86	0.0014003969
23	0x3c78c9b6	0.01518481
24	0x3b914125	0.0044328147
25	0xbb54159b	-0.003236151
26	0x3c068184	0.00820959
27	0x3c0a1a8f	0.008429184
28	0xbc1028eb	-0.008798818
29	0x3ccc0d00	0.024908543
30	0xbc3b161b	-0.011418845
31	0x3cb30d69	0.02185698
32	0xbbbfe711	-0.0058564027
33	0xbd08a377	-0.033359017
34	0x3c103849	0.008802482
35	0x3c3515ee	0.011052592
36	0x3a6b7c78	0.0008983086
37	0x3ca71e42	0.02040017
38	0xbc5ffe6c	-0.013671499
39	0xbb8e4adf	-0.0043424214
40	0x3b36cd1b	0.0027893248
41	0x3cc33cf1	0.02383277
42	0x3d0f7cfe	0.03503131
43	0x3be58f1d	0.007005586
44	0xbbf534d1	-0.007483103
45	0xbbf092b6	-0.007341708
46	0xb60c7580	-2.093002e-06
47	0x3a5ddd37	0.00084634445
48	0xbccaf589	-0.024775283
49	0xba912b72	-0.001107557
50	0xbd09a486	-0.033604167
51	0x3c2cbfb9	0.010543757
52	0xbb01a0b2	-0.001977962
53	0xbcebf914	-0.028805293
54	0xba81c5a1	-0.0009900817
55	0xb98c12c2	-0.00026716857
56	0xbd051b01	-0.032496456
57	0x3caa559d	0.020792777
58	0xbb75d4fa	-0.0037510977
59	0x3a9132e2	0.0011077786
60	0xbcfba669	-0.030718999
61	0xbcb3e69f	-0.021960555
62	0x3cb935ab	0.022608599
63	0x3c9df76c	0.019283019
64	0xb851d100	-5.002413e-05
65	0xbcf43f5c	-0.029815368
66	0x3c8b6a94	0.017018594
67	0x3c37957c	0.011205073
68	0x39f1eb82	0.0004614257
69	0x3c2df079	0.010616415
70	0xb825187e	-3.9361876e-05
71	0xbc9285c8	-0.017886057
72	0xbd18e1e6	-0.03732481
73	0x3c228c15	0.0099210935
74	0xbc2758e1	-0.0102140615
75	0x3cdbfd4f	0.026854185
76	0x3cb12bad	0.021627272
77	0x3c0ce108	0.0085985735
78	0xba423135	-0.0007407845
79	0xbba1a638	-0.004933145
80	0x3cc5ad9f	0.02413064
81	0x3c3ce989	0.0115302885
82	0x3c9ce919	0.019154118
83	0xbd0e43eb	-0.03473274
84	0xbd1ac36f	-0.037784036
85	0xbd1ed3ed	-0.038776327
86	0x3c95ae21	0.018271508
87	0xbcd23f70	-0.025665015
88	0x3ce4b10d	0.027916456
89	0x3ca31737	0.01990853
90	0xbc72782e	-0.014799161
91	0x3c04a266	0.008095359
92	0x3c8f298b	0.017475864
93	0x392ecd9c	0.00016670529
94	0x3a8a6e45	0.0010561427
95	0x3cb7ca4c	0.02243533
96	0x3c0047b3	0.007829594
97	0xba310d10	-0.00067539606
98	0x3a7ba471	0.0009599394
99	0x3c15dde2	0.009147139
100	0xbccdcf33	-0.025123214
101	0xba56d344	-0.0008194933
102	0xbc9b0742	-0.01892436
103	0xbc64b71e	-0.013959674
104	0xba2f87bc	-0.0006695946
105	0x3cc9629e	0.024583157
106	0xba480b78	-0.00076311035
107	0x3baba491	0.0052381237
108	0xbc8fecc4	-0.017568953
109	0x3c58c27f	0.013229965
110	0x38c264d6	9.269423e-05
111	0xbae6dbd3	-0.001761312
112	0xbd13243e	-0.035923235
113	0x3c18a660	0.009317011
114	0xba1a325e	-0.0005882139
115	0xba1a8a36	-0.0005895229
116	0xbc8ee604	-0.017443664
117	0xbc2aa108	-0.010414369
118	0xba293b82	-0.0006455706
119	0xba4a0570	-0.0007706499
120	0xbc497edc	-0.012298312
121	0xbd002f0e	-0.031294875
122	0xbc9a6f85	-0.018852005
123	0xbd0397c3	-0.032127153
124	0xbca426e8	-0.020038083
125	0xbcd79076	-0.026314002
126	0xba913ef1	-0.001108138
127	0x3c30758f	0.010770216
128	0xb981348e	-0.00024643954
129	0x3cac8f72	0.021064494
130	0xbbe4567f	-0.006968319
131	0xbca4d178	-0.020119414
132	0xb76fb244	-1.4287016e-05
133	0x3c981634	0.018565275
134	0xbc9e3b74	-0.019315459
135	0x3cdd5039	0.027015792
136	0xb8236850	-3.8959377e-05
137	0xbcee94dc	-0.029123716
138	0xbcb513cc	-0.022104166
139	0x3b5aa03c	0.0033359667
140	0x38f3e93e	0.00011630588
141	0x3bd7c136	0.006584312
142	0x3bc513d6	0.0060143275
143	0x3cc37322	0.02385861
144	0xbc676e28	-0.014125384
145	0xbd195eb1	-0.03744382
146	0x3bc7c2c2	0.006096215
147	0xbce7137a	-0.02820753
148	0xbd1f540b	-0.03889851
149	0x3cc95224	0.0245753
150	0x38d34600	0.000100743026
151	0x3cdb2ba3	0.026754206
152	0x3c40d63d	0.011769828
153	0xbcd13017	-0.025535626
154	0x3c6071cf	0.013699009
155	0x3c99b300	0.018762112
156	0xbcf11439	-0.029428588
157	0xbce8469b	-0.02835398
158	0x3bd64970	0.006539516
159	0x3b87e71b	0.004147423
160	0x3a2de8d2	0.0006634119
161	0xbbfccaf6	-0.0077146245
162	0xbcaa4d03	-0.020788675
163	0x3c79fa04	0.015257362
164	0x3cd12dc7	0.025534524
165	0x3cda539b	0.026651194
166	0x3ca12828	0.019672468
167	0x3cefb2dd	0.029260093
168	0xbc726206	-0.014793878
169	0xbb1808e0	-0.002319865
170	0xbb8a90ee	-0.0042287027
171	0x3c9c862f	0.019106952
172	0x3ba7b26f	0.0051177065
173	0xbb89e1ee	-0.004207841
174	0x3a8e7441	0.0010868387
175	0xbc326dbc	-0.0108904205
176	0xbc6b8133	-0.014374065
177	0xba8101ad	-0.0009842418
178	0x3cd8b82e	0.026455011
179	0xb981a5d0	-0.00024728337
180	0x3c4b10e6	0.012394166
181	0x3ce67201	0.028130533
182	0xbc4b2954	-0.01239999
183	0xbd01b23c	-0.03166412
184	0xbd0aa5fe	-0.03384971
185	0xbc88f67d	-0.016719097
186	0x3ceaf16a	0.028679568
187	0xbcb96bc0	-0.022634387
188	0xbc58892a	-0.013216296
189	0xb961daa4	-0.00021539122
190	0xbcb687af	-0.022281496
191	0x3ccf6b40	0.025319695
192	0xbcb26c6c	-0.021780215
193	0x3ce29b92	0.027662072
194	0x3c8d53ab	0.01725181
195	0x3cbe5ceb	0.023237666
196	0x3a8d8694	0.0010797554
197	0xbcad10a9	-0.021126108
198	0x3cb6d596	0.022318643
199	0xbc8da175	-0.017288903
200	0xbb487534	-0.0030587437
201	0x3cbe8d51	0.023260744
202	0xba8e7e57	-0.0010871392
203	0x3cbbad08	0.022909656
204	0x3a7df8b5	0.00096882443
205	0xbd10fd36	-0.03539773
206	0xbc092e3d	-0.0083728405
207	0x3c771cb1	0.015082524
208	0xbc0bb45a	-0.008526886
209	0x3a808d44	0.0009807725
210	0x3a8f5604	0.0010935669
211	0x3c4880d7	0.012237749
212	0x3b8a08e7	0.004212487
213	0x395b19f2	0.00020895133
214	0xba0b31ee	-0.00053098693
215	0xb8d3b6a8	-0.000100952864
216	0x3cc13e5c	0.023589306
217	0xbaabb3c8	-0.0013099844
218	0x3ab30a3f	0.001365967
219	0x3a8858fb	0.0010402495
220	0x3c40af12	0.01176049
221	0xba65f3f9	-0.00087720115
222	0xbc853f49	-0.016265528
223	0xbca12a0a	-0.019673366
224	0xbd066ba6	-0.032817505
225	0xba8fc0a3	-0.0010967444
226	0xbb88230e	-0.0041545695
227	0xba706b89	-0.00091712974
228	0x3cc22ce7	0.023703052
229	0xbcd38087	-0.025818123
230	0xbc34f429	-0.01104454
231	0xbc4e19cb	-0.012579392
232	0xbc2d5c07	-0.010581023
233	0x3b8e744e	0.0043473607
234	0xbb547636	-0.0032419092
235	0xbb103d89	-0.0022009334
236	0x3b6b8707	0.0035938637
237	0x3c804bd9	0.015661167
238	0xbcc83a8c	-0.02444198
239	0x3cbb439e	0.02285939
240	0xbbc08915	-0.0058757165
241	0xbb80fe4c	-0.0039365645
242	0xba6154f4	-0.0008595728
243	0x3b932eaa	0.004491647
244	0x3b1379c7	0.0022503005
245	0xbc1401fa	-0.009033674
246	0xbc4564b5	-0.012047936
247	0x3cc12c79	0.023580777
248	0xbcad71df	-0.021172462
249	0xbc8ff5c2	-0.017573241
250	0xbd0f40bc	-0.034973845
251	0x3ae688c6	0.0017588369
252	0x3c256d8e	0.010096921
253	0xbd063d58	-0.032773346
254	0x3c449170	0.011997566
255	0x3c844864	0.0161478

equalizer.2.bias f4 [64]
0	0xba6564c2	-0.0008750671
1	0xb9de6587	-0.00042418783
2	0xbbc30e53	-0.0059526353
3	0xbba82800	-0.0051317215
4	0x3c8a0e8e	0.016852643
5	0xbc49d2ed	-0.012318355
6	0xbce6d696	-0.028178494
7	0x3a7c3ed4	0.0009622399
8	0x3b265f7e	0.0025386508
9	0x3c086934	0.008325864
10	0x3ccb7009	0.024833696
11	0x3b0e8989	0.0021749458
12	0xbcd78cb8	-0.026312217
13	0x3ca54fe7	0.020179702
14	0x3cd2f87f	0.025753258
15	0xbc3e2904	-0.011606459
16	0x3cce81e0	0.025208414
17	0x3cdb563d	0.02677452
18	0xbcaeeae5	-0.02135224
19	0xbc8f7d4f	-0.017515806
20	0xbc96183a	-0.018322099
21	0x3b0a80b7	0.002113385
22	0xbcc0849f	-0.023500739
23	0xb8ae0f58	-8.2998245e-05
24	0x3d02d879	0.031944726
25	0xbad7a6a4	-0.0016452861
26	0xbc941533	-0.018076515
27	0xbbc2dcbe	-0.0059467247
28	0x3cf85e20	0.03031832
29	0xbcef2be2	-0.02919573
30	0xbcc7ab2f	-0.024373619
31	0x3ce1a3ac	0.027543865
32	0xbc83ecf2	-0.016104195
33	0xbc8800ef	-0.016602008
34	0xbc495b74	-0.0122898705
35	0x3ccd120c	0.02503302
36	0xbc8828d5	-0.016621033
37	0xbcd4c893	-0.025974547
38	0x3baae54f	0.005215324
39	0x3c782a46	0.0151467975
40	0xbc23fb4b	-0.010008643
41	0x3cde9042	0.027168397
42	0xbbd72f8d	-0.006566948
43	0x3b054517	0.002033537
44	0x3c72dac7	0.014822668
45	0x3c1eb744	0.009687249
46	0xb8f432b0	-0.00011644268
47	0xbc3efc61	-0.0116568515
48	0x3c11af2f	0.008891865
49	0xbbb848d8	-0.005623918
50	0xbb9914c4	-0.004671665
51	0xbc94255d	-0.018084222
52	0xbccb3cc5	-0.02480925
53	0xbc368bed	-0.011141759
54	0xbd16dcb4	-0.036831573
55	0xbd19263c	-0.03738998
56	0xba4d1d98	-0.0007824539
57	0xbc9e040b	-0.019289037
58	0xbc8a43cd	-0.016878033
59	0x3d1c67cb	0.038184922
60	0xbbb635f3	-0.0055606305
61	0xbcd16172	-0.02555916
62	0x3cfd47d0	0.030918032
63	0xbbb89bb3	-0.005633795

equalizer.4.weight f4 [2, 64, 3, 3]
0	0x3bcb1837	0.006197955
1	0x3c6936f9	0.014234298
2	0x3c30b1ea	0.0107846055
3	0xbc94a5ea	-0.01814552
4	0x39aa46a2	0.00032477552
5	0x3bfaf53b	0.0076586283
6	0xba88cfd2	-0.0010437912
7	0x3a75f4a5	0.0009382463
8	0xbb93f3b5	-0.004515136
9	0xbade8810	-0.0016977806
10	0xbcb5bcd1	-0.022184761
11	0xbbf64baf	-0.0075163464
12	0x374c0032	1.2159393e-05
13	0xbc8329c0	-0.016011119
14	0x3d09c66a	0.033636488
15	0xbc61331c	-0.013745096
16	0xbc1aa4e7	-0.00943873
17	0xb6957191	-4.453767e-06
18	0x3acca184	0.00156121
19	0x3b8efb6a	0.004363467
20	0x3aab7134	0.0013080002
21	0xbc010379	-0.007874363
22	0xbc929c30	-0.017896742
23	0xbb61dafc	-0.00344628
24	0x3c6e017e	0.014526723
25	0x3d0b8c1c	0.034069166
26	0x3d163cd6	0.03667911
27	0x3a789726	0.0009482972
28	0x3c5d0b92	0.013491528
29	0x3d1c7fd0	0.03820783
30	0x3cb3c512	0.021944556
31	0xbc73a65c	-0.014871206
32	0xbc3a213a	-0.011360461
33	0x3c498672	0.012300121
34	0x3d068d22	0.03284944
35	0x3cfcd8a9	0.03086503
36	0x3c59a134	0.013283063
37	0x3c8a4711	0.01687959
38	0xbc861f22	-0.016372267
39	0xbcb08812	-0.021549258
40	0xbbafca69	-0.0053647053
41	0x3b268726	0.0025410145
42	0xbccb009d	-0.024780566
43	0xbcb09f80	-0.02156043
44	0xbc3b1b78	-0.011420123
45	0x3d0b4250	0.033998787
46	0x3b5dfe4d	0.00338735
47	0xbc0e74ce	-0.008694841
48	0x3d16837e	0.036746494
49	0x3a83accd	0.0010046005
50	0xbc64be5c	-0.013961401
51	0x3b216942	0.002462939
52	0xbca24f5a	-0.019813228
53	0x3c570497	0.013123653
54	0x3cde2f25	0.02712209
55	0xbb32f024	-0.002730378
56	0x3c83777e	0.01604819
57	0xbbbf18ce	-0.0058318144
58	0xbbff3e47	-0.0077894065
59	0x3d0ff319	0.035143945
60	0x3d0637cf	0.032768067
61	0xbcbd0f62	-0.023078624
62	0xbc4d950d	-0.0125477435
63	0x3cb2387f	0.021755455
64	0xbcce6507	-0.025194658
65	0x3a51aa28	0.00079980725
66	0xbbcc3e86	-0.0062330393
67	0xbc54be5a	-0.0129848365
68	0x3d07c315	0.03314503
69	0xbc32c320	-0.010910779
70	0x3c58e22a	0.013237515
71	0xbcbb2eb6	-0.022849422
72	0xbc9706f3	-0.01843593
73	0x3d1de45b	0.038547855
74	0x3a902e53	0.0011000134
75	0x3cee49a0	0.029087842
76	0xbbdb6890	-0.0066958144
77	0xbca9ec95	-0.020742694
78	0x3c75775f	0.014982074
79	0xbc7604d0	-0.015015796
80	0x39534a30	0.00020150165
81	0x3d18891b	0.03724013
82	0x3d1bc6b0	0.03803128
83	0xbbf8ff77	-0.007598813
84	0x3bbe62f3	0.0058101355
85	0x395f7c02	0.00021313134
86	0xbb889a06	-0.0041687516
87	0xbcdf1866	-0.027233314
88	0xbcaf507a	-0.021400679
89	0x3b02993a	0.0019927756
90	0x39c41368	0.00037398492
91	0xbce78838	-0.028263196
92	0x3c111bc0	0.008856714
93	0xbb3343cb	-0.002735364
94	0x3c6dc58c	0.014512431
95	0xbc77d618	-0.0151267275
96	0xbca70bc4	-0.020391352
97	0x3ca58e84	0.020209558
98	0x3c0913f7	0.008366576
99	0x3b14cb29	0.00227041
100	0x3d26ce7a	0.040724255
101	0x3bc0bc38	0.0058818124
102	0x3d330f76	0.043715917
103	0x3a267379	0.0006349604
104	0x3bff0bb8	0.0077833794
105	0x3c82b9e9	0.01595779
106	0xbb3798c9	-0.002801465
107	0x3cc6c113	0.024261987
108	0x3a1e38bc	0.0006035676
109	0x3c5347f1	0.01289557
110	0xbcc2360b	-0.02370741
111	0x3cf931c9	0.030419247
112	0x3ce0fc8c	0.027464174
113	0x3c4ec377	0.012619845
114	0xbccea015	-0.025222817
115	0x3724b2b4	9.816769e-06
116	0x3caffaeb	0.021481952
117	0x3b003662	0.0019563665
118	0xbc6ed1f7	-0.014576427
119	0x3c0d00a6	0.008606112
120	0x3cb3554a	0.021891255
121	0x3ca49b12	0.020093475
122	0x3b41cced	0.0029571608
123	0x39a411da	0.00031293818
124	0x3a9fd506	0.0012194223
125	0x3cc9bbca	0.024625678
126	0xbc3a43ce	-0.011368705
127	0xbccae024	-0.024765082
128	0xbc63a8e2	-0.013895245
129	0x3cd117d0	0.02552405
130	0x3cdd6f4c	0.02703061
131	0x3cc4dd95	0.02403144
132	0xbc755af3	-0.014975297
133	0x3946a905	0.00018945716
134	0xbb6ef089	-0.0036459288
135	0x3cc6bf02	0.024261001
136	0x3c37ca5d	0.011217681
137	0x3c86e6ae	0.016467419
138	0xbca45ccc	-0.02006378
139	0x3ca78c51	0.02045265
140	0x3cdce4f2	0.026964638
141	0x3c3c5ce1	0.011496753
142	0x3ac46990	0.0014985073
143	0x3c4211e6	0.011845088
144	0xbccb56c6	-0.02482165
145	0x391b0b2c	0.00014786114
146	0x3c0094e9	0.007848003
147	0x3bb90d36	0.005647327
148	0x3bd64d13	0.0065399497
149	0xbbd9b754	-0.006644169
150	0xbc84b057	-0.016197367
151	0xbbeefee9	-0.0072935713
152	0x3cdb8f81	0.026801826
153	0xbcd29cb9	-0.025709497
154	0x3d20f3d6	0.03929504
155	0x3c1cc184	0.009567622
156	0xbb7f8be6	-0.0038993298
157	0x3a36436c	0.00069527957
158	0x3b523c1f	0.0032079292
159	0xbc11e370	-0.008904323
160	0x3d0331c4	0.032029882
161	0x3d093aec	0.033503458
162	0x3c9a9579	0.018870102
163	0xbcc8beb1	-0.024504991
164	0x3d0ac91e	0.033883207
165	0xba457dfc	-0.0007533727
166	0x3bc8fa9a	0.0061333897
167	0xbcb9cfaa	-0.02268203
168	0x3c8878a0	0.016659081
169	0xbcc748e3	-0.024326747
170	0xbc39f019	-0.011348748
171	0xb8bcaed9	-8.9971065e-05
172	0x3ae0382b	0.0017106583
173	0xbcd953c4	-0.0265292
174	0xb8b9df58	-8.8630884e-05
175	0xbca7fff3	-0.020507788
176	0x3ceaf757	0.028682394
177	0xba8ce358	-0.0010748906
178	0xba973bc0	-0.0011538193
179	0x3d1c222c	0.038118526
180	0xba5369ce	-0.00080647774
181	0x3d0e5748	0.034751207
182	0xbc712793	-0.014718908
183	0xba8792e6	-0.0010343462
184	0x3c16d252	0.009205418
185	0xbc8bc1d7	-0.017060203
186	0x3cfdda82	0.030987982
187	0x3ce35fc6	0.02775563
188	0x3c8bdd0a	0.017073173
189	0x3c8c350c	0.017115138
190	0xbc77ba39	-0.015120083
191	0x3d1c2b98	0.03812751
192	0xbc98c984	-0.018650778
193	0x3b22f9b2	0.0024868068
194	0x394807c0	0.00019076373
195	0x3b8389bc	0.004014222
196	0x3d0d6ebc	0.034529433
197	0xbcb61752	-0.022227917
198	0xbc9571f3	-0.018242812
199	0xbc7f769f	-0.015592246
200	0x3d0aa5c3	0.03384949
201	0x38ce4880	9.83635e-05
202	0xbc166267	-0.009178734
203	0x3d111585	0.035420913
204	0xba41c40e	-0.000739158
205	0x3bb1ec50	0.005429782
206	0x3c4ca604	0.012490753
207	0xba8d2d57	-0.0010770959
208	0xbbc52745	-0.006016644
209	0x3a90605a	0.0011015043
210	0x3d03ce41	0.03217912
211	0x3cd05629	0.02543171
212	0xba262fd8	-0.0006339527
213	0x3cc7feb8	0.024413452
214	0xbcc5f13e	-0.024162885
215	0xbbafd547	-0.005366001
216	0x3bb9ee0e	0.0056741303
217	0x3b1e6296	0.0024167649
218	0x3c0ead93	0.0087083755
219	0x3b631ca5	0.0034654525
220	0x3d1e964e	0.03871756
221	0x3cc2b0a6	0.023765873
222	0xbbe3ac91	-0.0069480618
223	0x3bbbdf19	0.0057333824
224	0x3c9a9ed3	0.018874561
225	0x3a8ddbf7	0.0010823001
226	0x3a8d374f	0.001077393
227	0xbc440081	-0.011963011
228	0xbbae489b	-0.005318714
229	0x3c08ef7a	0.008357877
230	0xbcbca0b6	-0.023025852
231	0x3cf269ca	0.02959146
232	0xbc765bc1	-0.015036524
233	0xbc68b379	-0.014202946
234	0x3a549c4f	0.000811045
235	0xbbf8df76	-0.007594998
236	0xba3c00d1	-0.00071717525
237	0xbb99fa8a	-0.004699056
238	0x3b94eeb2	0.0045450563
239	0x3c735238	0.014851145
240	0x3c7f1cfb	0.015570874
241	0xba29142f	-0.0006449846
242	0xbc03ac24	-0.008036647
243	0x3b4f352e	0.003161739
244	0x3746639c	1.1824912e-05
245	0x3caffa1e	0.02148157
246	0xbbaa0f15	-0.005189786
247	0xbc27ff5a	-0.010253752
248	0xbc07cd52	-0.008288698
249	0x3528ac00	6.283517e-07
250	0x3a374856	0.0006991675
251	0x3b81acb7	0.003957357
252	0x3c68d32e	0.014210505
253	0xbbdf5542	-0.0068155834
254	0x3bce281e	0.0062914034
255	0xbc424ef6	-0.011859646

equalizer.4.bias f4 [2]
0	0x3a8b254a	0.0010615971
1	0x3a6e713f	0.00090958545

demapper.weight f4 [4, 2]
0	0x3f1a1304	0.60185266
1	0x3e1743c3	0.14771943
2	0x3ed55f9e	0.41674513
3	0xbf1a11fd	-0.601837
4	0x3ec1aa57	0.3782527
5	0xbd9d3c69	-0.07677538
6	0x3eb7e5ba	0.35917455
7	0xbf302a91	-0.6881495

demapper.bias f4 [4]
0	0x3cc801ce	0.024414923
1	0x3e557aac	0.20847577
2	0x3e9779e3	0.2958518
3	0xbf182648	-0.5943341
