MYSetup/neural_receiver_model.pth (torch, 323931 bytes, 14 tensors)

channel_estimator.0.weight f4 [64, 2, 3, 3]
-0.09198142 0.1432296 -0.1730914 -0.016528588 -0.010436023 0.25732693 0.25334185 0.06724331
0.19761522 -0.20989126 0.15448633 -0.0031004131 0.21446669 0.2078862 -0.1623625 -0.010880752
0.08529068 -0.12688154 -0.099142574 -0.22769693 0.1081891 0.22102039 -0.2428929 -0.026882002
0.08386287 0.028109945 0.1345722 0.10519407 0.087547295 -0.029550014 -0.24779683 0.023047859
-0.21443313 -0.11122007 -0.1837605 0.03230954 -0.14724155 -0.17232767 0.22277151 -0.14806382
-0.059222642 0.21399413 -0.17726442 -0.03690834 -0.04678424 -0.06731852 -0.061870206 -0.2099293
-0.1328776 -0.016510472 -0.071414515 -0.06715694 -0.088248275 -0.019883724 0.17628884 0.1271505
-0.06352596 0.23453431 0.15709984 -0.07028443 0.03407258 0.22858924 -0.009889239 -0.16221072
-0.12153679 0.19693787 -0.16574472 -0.0085588 0.0075097526 0.11322767 -0.22910866 -0.088478655
0.13973437 0.15492387 0.05582406 0.041772977 0.077286825 -0.16178754 -0.19975363 0.11582772
-0.09786487 0.03731427 -0.21350327 0.059301388 0.12369127 0.12168888 -0.082846105 -0.13701312
-0.1069891 -0.085448794 0.096619345 0.13065718 0.18755423 0.109481856 -0.055108022 0.06865606
0.008959431 -0.05284667 0.21814959 0.13600002 0.17324933 0.0125863915 -0.1899156 -0.23440605
0.04120598 -0.049855925 -0.056257106 -0.07408517 0.12340412 0.034583293 -0.17732985 -0.1297168
-0.25749248 -0.13161446 0.20900637 0.16465591 -0.24789244 -0.08847743 -0.08327049 0.18215397
-0.16470018 4.508457e-05 -0.008418949 -0.10028791 -0.15957358 0.20837393 0.10617044 -0.14686176
-0.24277487 -0.09117067 0.117386445 -0.22677214 -0.13749363 -0.18023778 -0.1805262 0.0956735
-0.18030857 0.055949744 -0.23153132 -0.14701413 0.13272187 -0.22745165 -0.04465572 0.14805157
-0.16511914 -0.06738268 -0.20855482 0.09240413 0.20582646 -0.22326379 0.012763477 0.08190059
-0.06842894 0.07333126 -0.06786773 -0.22500023 -0.14221312 -0.06945191 -0.16473056 -0.10082542
0.021696983 -0.19553693 -0.23183563 0.1756488 -0.2190903 0.15389943 -0.009694089 0.12856798
-0.047444418 0.1845379 -0.15734257 0.094815016 0.018111574 -0.22842003 -0.22948879 -0.21136011
-0.19066301 0.0046096686 0.013139601 -0.11510652 -0.18928106 -0.21360555 -0.14814189 0.12451302
0.09765074 0.025975423 -0.108581744 -0.25839418 -0.1348445 -0.17548127 -0.011374753 -0.07629269
0.10678876 0.12060605 -0.07501317 -0.11388764 -0.009579529 0.052395776 0.23340467 -0.086199954
0.004054045 -0.2242931 0.16160737 0.112523444 0.013581006 0.19631864 -0.14698449 -0.14045177
-0.09951616 -0.1164749 0.12321041 -0.081979625 -0.21521491 -0.103345275 0.0055623427 0.00020706093
-0.12633072 0.19078365 0.161513 -0.094586186 -0.19875313 -0.23067228 -0.07919509 -0.18825229
-0.057719413 -0.08820609 -0.17591229 -0.029680287 -0.2212224 0.20608947 0.03627268 -0.22847687
-0.095598236 -0.035875913 -0.06997267 0.267509 -0.019323284 0.08931474 0.18029648 0.20458153
-0.13936576 -0.2361281 0.20117892 -0.102923185 0.02537392 0.17173515 -0.03181282 -0.15507637
0.10829538 0.18235044 0.19900776 0.084393956 -0.11761114 0.24537031 -0.12950575 0.1755167
00000000: c160 bcbd c8aa 123e df3e 31be f666 87bc
00000010: dafb 2abc 5bc0 833e 06b6 813e dcb6 893d
00000020: a55b 4a3e bced 56be aa31 1e3e 4d30 4bbb
00000030: 289d 5b3e 1fe0 543e 5b42 26be 2e45 32bc
00000040: e1ac ae3d 3ced 01be 430b cbbd 6229 69be
00000050: 3f92 dd3d 2b53 623e ebb8 78be a537 dcbc
00000060: 4cc0 ab3d d446 e63c 4bcd 093e fd6f d73d
00000070: ff4b b33d df12 f2bc 74be 7dbe ddce bc3c
00000080: 5c94 5bbe 59c7 e3bd b62b 3cbe 0257 043d
00000090: 7dc6 16be aa76 30be 371e 643e 0b9e 17be
000000a0: 7193 72bd 4721 5b3e ce84 35be 332d 17bd
000000b0: d5a0 3fbd 4bde 89bd 9d6b 7dbd b5f7 56be
000000c0: 1111 08be f840 87bc c641 92bd 9489 89bd
000000d0: 83bb b4bd 31e3 a2bc 1085 343e be33 023e
000000e0: e619 82bd c329 703e c8de 203e 49f1 8fbd
000000f0: b18f 0b3d 4c13 6a3e 7a06 22bc 911a 26be
00000100: 48e8 f8bd 15aa 493e fcb8 29be 363a 0cbc
00000110: 5f14 f63b e9e3 e73d 769b 6abe 4c34 b5bd
00000120: 8716 0f3e 5da4 1e3e c5a7 643d 241a 2b3d
00000130: 8e48 9e3d a2ab 25be 378c 4cbe 1537 ed3d
00000140: 616d c8bd d9d6 183d 9aa0 5abe 03e6 723d
00000150: d951 fd3d 0538 f93d 38ab a9bd 2b4d 0cbe
00000160: 1a1d dbbd c7ff aebd 5de0 c53d ffca 053e
00000170: 370e 403e 0638 e03d f3b8 61bd 8c9b 8c3d
00000180: 94ca 123c c075 58bd 9b62 5f3e 9743 0b3e
00000190: 4668 313e 2737 4e3c 3c79 42be 2408 70be
000001a0: 9ac7 283d ba35 4cbd da6d 66bd f7b9 97bd
000001b0: 4dbb fc3d 36a7 0d3d f595 35be 7bd4 04be
000001c0: 0ed6 83be f1c5 06be c405 563e 8f9b 283e
000001d0: 84d7 7dbe a833 b5bd b889 aabd 9286 3a3e
000001e0: 2aa7 28be 3019 3d38 a2ef 09bc bf63 cdbd
000001f0: 4267 23be fa5f 553e e36f d93d ee62 16be
00000200: fa99 78be b0b7 babd 4e68 f03d f536 68be
00000210: 21cb 0cbe 4190 38be dcdb 38be 78f0 c33d
00000220: cfa2 38be 8f2b 653d 8c16 6dbe df8a 16be
00000230: 3ee8 073e 16e9 68be ebe8 36bd d59a 173e
00000240: fe14 29be eeff 89bd 658f 55be 603e bd3d
00000250: 2cc4 523e 439f 64be e71d 513c 7fbb a73d
00000260: 7924 8cbd b32e 963d 3dfe 8abd 7666 66be
00000270: 51a0 11be ce3c 8ebd 21af 28be 8f7d cebd
00000280: dfbd b13c d53a 48be 5266 6dbe 47dd 333e
00000290: 3559 60be d097 1d3e f5d3 1ebc 53a7 033e
000002a0: 1455 42bd 81f7 3c3e 691e 21be 602e c23d
000002b0: b95e 943c f1e6 69be 1cff 6abe c96e 58be
000002c0: 2a3d 43be b40c 973b 7b47 573c f8bc ebbd
000002d0: e5d2 41be 6abb 5abe 82b2 17be af00 ff3d
000002e0: 1cfd c73d 69ca d43c 1b60 debd 3e4c 84be
000002f0: ad14 0abe 5db1 33be 2c5d 3abc 583f 9cbd
00000300: 11b4 da3d 4e00 f73d 81a0 99bd ec3d e9bd
00000310: 75f3 1cbc f49c 563d a201 6f3e 9a89 b0bd
00000320: cbd7 843b 17ad 65be 677c 253e b172 e63d
00000330: de82 5e3c c107 493e 1a83 16be 97d2 0fbe
00000340: 21cf cbbd 648a eebd bd55 fc3d efe4 a7bd
00000350: 4c61 5cbe b0a6 d3bd 5044 b63b 7f1e 5939
00000360: d75c 01be ca5c 433e aa63 253e 67b6 c1bd
00000370: f185 4bbe 5b35 6cbe 0931 a2bd 35c5 40be
00000380: 316b 6cbd 65a5 b4bd 5a22 34be 1324 f3bc
00000390: 2088 62be 1e09 533e a992 143d d7f5 69be
000003a0: 02c9 c3bd 9ff2 12bd d54d 8fbd f1f6 883e
000003b0: dd4b 9ebc a5ea b63d a49f 383e d27d 513e
000003c0: e6b5 0ebe 91cb 71be d901 4e3e 64c9 d2bd
000003d0: f8dc cf3c 57db 2f3e 294e 02bd 57cc 1ebe
000003e0: f8c9 dd3d 13ba 3a3e b1c8 4b3e bdd6 ac3d
000003f0: 1cde f0bd 5b42 7b3e 289d 04be a6ba 333e

channel_estimator.0.bias f4 [64]
0.011376163 -0.111327946 -0.007634714 0.23866458 0.0715693 0.18438487 0.0307233 0.0033770169
0.23820327 0.046987377 0.12325975 0.18999088 0.22497916 0.27695113 0.2359159 0.19437757
0.13228849 -0.0643243 -0.1246291 -0.14823087 0.08209515 0.12692814 0.23906273 0.124498405
-0.07510636 -0.028877214 0.1790146 0.18987045 0.051067512 0.21375395 -0.043157935 0.21116862
0.14336368 0.12424512 0.19883634 0.1768884 -0.17286667 0.2241081 0.00493703 -0.12775943
0.19684756 0.15591274 0.24212316 0.1943196 0.22370009 -0.20520578 0.22834492 -0.045348544
0.25130358 -0.12035544 0.13101903 -0.15929781 -0.03161653 -0.1468771 -0.2188717 0.06667291
-0.081669465 -0.0357095 0.107759215 -0.018771376 -0.074247666 0.08013747 0.12944725 0.18250906
00000000: 1663 3a3c e8ff e3bd 9f2c fabb 7d64 743e
00000010: ed92 923d 63cf 3c3e 6eaf fb3c f150 5d3b
00000020: 8feb 733e d675 403d 9c6f fc3d f88c 423e
00000030: f060 663e 8acc 8d3e f093 713e ea0a 473e
00000040: a276 073e 75bc 83bd 8b3d ffbd d5c9 17be
00000050: 8121 a83d 73f9 013e dccc 743e 05f9 fe3d
00000060: 5dd1 99bd e88f ecbc 9a4f 373e 666d 423e
00000070: 2b2c 513d 51e2 5a3e 60c6 30bd 963c 583e
00000080: eecd 123e 3a74 fe3d c19b 4b3e 3c22 353e
00000090: f603 31be 987c 653e cfc6 a13b 5ed3 02be
000000a0: 6892 493e 97a7 1f3e 22ef 773e b8fb 463e
000000b0: a311 653e 7721 52be 40d3 693e 65bf 39bd
000000c0: ddaa 803e ea7c f6bd da29 063e f71e 23be
000000d0: 5680 01bd f366 16be e71f 60be ce8b 883d
000000e0: 5242 a7bd 2044 12bd ddb0 dc3d 6ec6 99bc
000000f0: 290f 98bd 1d1f a43d d28d 043e a8e3 3a3e

channel_estimator.2.weight f4 [64, 64, 3, 3]
0.0056197797 0.004333986 0.023514066 0.003463882 0.015863359 -0.015449493 -0.045221344 -0.0021098852
-0.0243383 -0.027064133 -0.0061201164 0.0014850472 -0.009045566 -0.03511999 -0.012313143 0.01911416
-0.045586523 0.016750267 -0.048404906 -0.0062095076 -0.020135757 0.019841095 0.018624157 0.022063851
-0.01173562 -0.03446661 -0.012061864 0.027527813 0.0065792506 -0.0014920032 0.018793821 -0.0018278426
0.004258131 0.006618768 0.028628303 0.026515076 0.024006018 0.030944644 -0.011370634 -0.0138966385
0.020222895 -0.032079607 0.030900883 0.0077039017 -0.021770328 -0.013495144 0.020603402 0.006930702
0.004184098 -0.0197455 0.010360071 0.006053418 0.027178474 -0.023835203 -0.043312944 0.028863244
0.028543266 0.004341818 0.034432083 -0.0037944126 0.006949973 -0.020280596 -0.003381983 0.005729591
-0.019334905 -0.019654838 -0.010559403 -0.0100149885 0.0038219087 -0.04206778 -0.038347278 -0.048097305
0.020408789 0.03106799 -0.04484201 -0.0028619315 0.017351536 -0.042191524 0.024467587 0.0021993478
0.025066944 0.008708871 -0.0038876422 -0.00404481 0.0078102928 -0.00037075888 -0.003023336 -0.029266858
-0.031400975 0.019328492 0.022067651 -0.017366203 0.035727005 -0.041824594 0.034753315 -0.016914
-0.025269369 -0.034294967 -0.0051041665 -0.022560842 0.010681798 0.009827093 0.005410909 -0.0383836
-0.038059715 0.024204273 0.02129501 0.020144757 -0.010541891 -0.014378868 -0.00057928415 0.0345588
-0.025237149 -0.027851414 -0.04784627 -0.03069226 -0.04145454 -0.03344237 -0.020216897 -0.04408043
-0.024287658 -0.013566846 0.0074900975 -0.04608125 -0.0026331167 -0.011215116 -0.035516582 0.007235893
-0.02391453 0.022800032 -0.025510421 0.022956375 -0.024960643 0.0004531433 -0.038419984 0.010247083
0.02448644 -0.032167275 -0.02155775 0.01662057 -0.028395366 0.004100043 -0.009003726 -0.036288336
-0.020677999 0.025146153 -0.02058055 0.0020734838 -0.034349684 0.021193322 -0.023883317 -0.034711435
-0.010437599 0.023633836 -0.003185197 -0.012980642 0.03256973 -0.04060812 -0.031471085 -0.032155275
0.019516218 -0.04157996 -0.018818926 0.013096646 -0.027463697 -0.01745493 -0.023171479 0.0041228677
-0.021587053 -0.04273618 0.01705549 0.035162088 -0.032375686 -0.017314387 0.012038186 0.005868407
0.01199378 -0.028817654 0.015712751 -0.021078466 0.011568928 0.02663308 -0.023788838 0.0071379575
-0.010301951 -0.04482643 0.026506921 -0.03678514 -0.022605447 -0.03817889 0.014112914 -0.037826315
-0.036293164 -0.02870598 -0.011103312 -0.02213368 0.01995665 -0.016839702 0.004144513 0.013755766
0.010829879 -0.0012937197 0.0172887 0.037757087 0.020927545 -0.0034397107 0.0075052823 0.005698044
-0.017057944 0.0061033927 -0.01753794 0.009399127 -0.02798711 -0.002856715 -0.023604894 0.005207629
0.0030840067 -0.04634446 -0.0031271991 -0.011029268 -0.01785906 0.03489937 -0.017786058 -0.020996278
0.0029822944 0.033995684 -0.00010944299 0.0042149895 -0.034303397 0.016168242 0.023060285 -0.032415107
0.019413594 -0.0048837783 0.026802067 -0.029204298 0.028817847 -0.0420173 -0.053256065 0.008452691
-0.014475363 0.0002037922 0.016578846 0.0006548078 -0.011276808 0.0034740947 0.00639245 0.004609556
-0.008811254 -0.0073914225 -0.0031316502 -0.022432568 0.009705302 0.02015946 -0.018063547 -0.036734328
00000000: 2126 b83b 1c04 8e3b 92a0 c03c 4c02 633b
00000010: e0f3 813c df1f 7dbc 043a 39bd 0046 0abb
00000020: 1d61 c7bc 9ab5 ddbc 428b c8bb eaa5 c23a
00000030: db33 14bc fbd9 0fbd 11bd 49bc 4d95 9c3c
00000040: efb8 3abd db37 893c 3944 46bd 2079 cbbb
00000050: bef3 a4bc cb89 a23c b091 983c 40bf b43c
00000060: c246 40bc dc2c 0dbd 209f 45bc 0282 e13c
00000070: c196 d73b 528f c3ba 80f5 993c 3894 efba
00000080: cb87 8b3b 40e2 d83b e785 ea3c 2536 d93c
00000090: 45a8 c43c 9f7f fd3c e54b 3abc baae 63bc
000000a0: 7caa a53c e865 03bd d923 fd3c 0371 fc3b
000000b0: b057 b2bc bd1a 5dbc 77c8 a83c f11a e33b
000000c0: c21a 893b 51c1 a1bc 4abd 293c c05b c63b
000000d0: 64a5 de3c 0b42 c3bc ea68 31bd 9c72 ec3c
000000e0: 91d3 e93c cf45 8e3b a808 0d3d aeab 78bb
000000f0: 99bc e33b 7e23 a6bc 42a4 5dbb 4bbf bb3b
00000100: 3c64 9ebc 2f03 a1bc 5901 2dbc e815 24bc
00000110: fd78 7a3b 444f 2cbd 0912 1dbd ae01 45bd
00000120: 5530 a73c 4c82 fe3c 41ac 37bd 3e8f 3bbb
00000130: cf24 8e3c 05d1 2cbd 4070 c83c ef22 103b
00000140: 3159 cd3c a7af 0e3c d0c7 7ebb 538a 84bb
00000150: 7ced ff3b 6a62 c2b9 2923 46bb 0dc1 efbc
00000160: 4f9e 00bd c956 9e3c 38c7 b43c 9143 8ebc
00000170: 7b56 123d 4450 2bbd 7e59 0e3d 3b8f 8abc
00000180: b501 cfbc e178 0cbd da40 a7bb 84d1 b8bc
00000190: b502 2f3c d101 213c ff4d b13b 1f38 1dbd
000001a0: 81e4 1bbd 0a48 c63c df72 ae3c 9e06 a53c
000001b0: e5b7 2cbc 5895 6bbc 1adb 17ba 878d 0d3d
000001c0: 23be cebc a628 e4bc 73fa 43bd 566e fbbc
000001d0: 3ccc 29bd defa 08bd e89d a5bc ae8d 34bd
000001e0: e9f6 c6bc 7a47 5ebc 7e6f f53b b1bf 3cbd
000001f0: 5e90 2cbb 9bbf 37bc d679 11bd 121b ed3b
00000200: 68e8 c3bc 22c7 ba3c 3bfb d0bc 020f bc3c
00000210: 437a ccbc dd93 ed39 465e 1dbd 62e3 273c
00000220: c997 c83c d5c1 03bd e199 b0bc dd27 883c
00000230: 669d e8bc a759 863b 5d84 13bc 14a3 14bd
00000240: e864 a9bc 4eff cd3c 8b98 a8bc 49e3 073b
00000250: 41b2 0cbd 9e9d ad3c f2a6 c3bc 942d 0ebd
00000260: 7702 2bbc bf9b c13c bdbe 50bb c2ac 54bc
00000270: d667 053d b354 26bd d3e7 00bd 40b5 03bd
00000280: 7ae0 9f3c c04f 2abd 262a 9abc 5193 563c
00000290: 8cfb e0bc a4fd 8ebc 1dd2 bdbc 1f19 873b
000002a0: 55d7 b0bc 220c 2fbd f4b7 8b3c 1f06 103d
000002b0: 5e9c 04bd e7d6 8dbc d03b 453c c44b c03b
000002c0: 8f81 443c 0013 ecbc 07b8 803c bfac acbc
000002d0: 9a8b 3d3c 9e2d da3c cfe0 c2bc 87e5 e93b
000002e0: 84c9 28bc eb9b 37bd 0b25 d93c 04ac 16bd
000002f0: 0f2f b9bc 7861 1cbd da39 673c c4ef 1abd
00000300: 24a8 14bd ce28 ebbc aaea 35bc b151 b5bc
00000310: 217c a33c 6af3 89bc b2ce 873b dd5f 613c
00000320: ce6f 313c 0892 a9ba 08a1 8d3c 2da7 1a3d
00000330: 3e70 ab3c c56c 61bb dfee f53b a8b6 ba3b
00000340: 1abd 8bbc f8fe c73b baab 8fbc ccfe 193c
00000350: 3945 e5bc b937 3bbb 0d5f c1bc c2a4 aa3b
00000360: 0c1d 4a3b b0d3 3dbd b2f1 4cbb 1ab4 34bc
00000370: 2a4d 92bc a4f2 0e3d 11b4 91bc 6300 acbc
00000380: 9972 433b 0f3f 0b3d c284 e5b8 e51d 8a3b
00000390: b881 0cbd 4373 843c ece8 bc3c b4c5 04bd
000003a0: 4209 9f3c 1a08 a0bb 0290 db3c da3d efbc
000003b0: 6813 ec3c 551a 2cbd 0823 5abd 287d 0a3c
000003c0: 132a 6dbc 0db1 5539 5cd0 873c 68a7 2b3a
000003d0: 5cc2 38bc a3ad 633b c277 d13b c20b 973b
000003e0: 145d 10bc bf33 f2bb 5f3c 4dbb 81c4 b7bc
000003f0: fd02 1f3c 7425 a53c 01fa 93bc bc76 16bd

channel_estimator.2.bias f4 [64]
-0.042063694 -0.0094485665 -0.013365591 -0.02381856 -0.029296009 0.00478964 -0.043601148 0.024713757
0.009372221 -0.015421257 0.00868348 0.02470342 0.02698721 0.023092568 -0.033622008 0.020943062
0.031732347 0.017767215 0.04799978 0.026224349 -0.00599725 -0.0115405 -0.00047504302 0.0363621
0.00061016384 -0.031179233 0.024922026 -0.029371817 0.024319151 -0.006003198 0.010062288 -0.034731533
-0.044790767 0.028944511 -0.025667047 0.025750715 0.034771044 -0.03068511 0.010616352 -0.030046724
0.018398028 -0.014925811 0.031369086 -0.01130854 -0.03084265 0.004382581 -0.032230817 -0.03196863
0.005767499 -0.04334466 0.032754388 0.11533417 0.014881595 -0.0050505083 -0.016155377 0.0010809768
0.009009323 0.022496175 -0.034693133 -0.036928818 0.015358503 0.01808611 0.013183462 0.002943995
00000000: fb4a 2cbd 29ce 1abc 5afb 5abc 241f c3bc
00000010: 2ffe efbc 6af2 9c3b 1e97 32bd 8174 ca3c
00000020: f28d 193c 71a9 7cbc 2845 0e3c d45e ca3c
00000030: 4814 dd3c a02c bd3c 3bb7 09bd c990 ab3c
00000040: c7f9 013d 8d8c 913c 6b9b 443d 72d4 d63c
00000050: 9484 c4bb 5e14 3dbc 320f f9b9 6df0 143d
00000060: 67f3 1f3a 976b ffbc 4729 cc3c 2a9d f0bc
00000070: f538 c73c 7ab6 c4bb 4bdc 243c a742 0ebd
00000080: 8676 37bd 0a1d ed3c b343 d2bc 2af3 d23c
00000090: 156c 0e3d 575f fbbc 35f0 2d3c 8c24 f6bc
000000a0: 76b7 963c 648b 74bc df7c 003d 7447 39bc
000000b0: baa9 fcbc c19b 8f3b 7604 04bd 8af1 02bd
000000c0: 4afd bc3b 2c8a 31bd 7729 063d 5234 ec3d
000000d0: efd1 733c bc7e a5bb 4858 84bc 90af 8d3a
000000e0: d79b 133c e649 b83c 631a 0ebd ac42 17bd
000000f0: 3ba2 7b3c 5229 943c 73ff 573c 0af0 403b

channel_estimator.4.weight f4 [2, 64, 3, 3]
-0.035146076 0.0004247636 0.010460717 -0.013069067 0.0065640244 -0.035420053 0.029815156 0.035194304
0.01390807 0.036622625 -0.014903066 -0.0304477 -0.04305466 0.015849782 -0.014308628 0.025818761
0.018072665 -0.027568536 -0.056690324 -0.012148285 -0.020256614 0.015818208 -0.0003664154 0.0102466205
0.02285271 0.02426535 0.025026973 -0.01913003 0.0068610017 -0.03163896 0.029924203 -0.037286546
0.021663576 0.04218824 -0.025159135 0.024575451 0.009951144 -0.033745892 0.04202196 0.0044419933
-0.0123715345 0.01685582 -0.016523346 -0.019855151 -0.004724683 -0.026540142 0.024654353 0.0030746579
0.02622483 0.0070509817 -0.04832531 0.029918918 -0.02072364 -0.0056972182 0.012887382 0.011004497
0.01656046 0.023378914 0.013765965 -0.037711576 0.033212088 -0.014811184 0.0228879 -0.0061048195
0.0015443611 -0.008625668 -0.012246893 -0.018301016 -0.007007802 -0.05108771 0.025565382 -0.021553775
0.042325564 -0.032476142 -0.01881209 -0.01585357 0.0006991904 -0.034573972 -0.021777285 -0.0020201504
-0.0367974 -0.013113506 0.0144451605 -0.033840384 -0.042095326 -0.03577063 -0.016249117 -0.028315334
0.028573222 -0.012849563 0.009139938 0.021119326 -0.033831324 0.02229094 -0.016803537 -0.011968347
-0.00080911873 -0.02556514 -0.041613195 0.019930134 0.020147447 -0.03595245 -0.008045799 0.01631328
-0.015625007 0.03544421 -0.011203978 -0.033019572 -0.021628715 0.0023291842 0.031896908 -0.030514657
0.029317712 -0.023104874 0.0056789205 -0.023990232 0.026830567 -0.03639793 0.010864146 0.011554644
-0.032905806 -0.03428037 0.0074958103 -0.024513839 -0.014625169 -0.03207155 -0.024729922 0.038315773
-0.04049949 0.024272898 0.015382155 -0.023501985 0.02169169 0.020474128 -0.008003267 0.021404756
0.004856136 -0.02233477 -0.035318285 0.021605859 0.02308023 0.03595668 0.0075569707 0.011099158
0.0049469233 0.01908045 -0.036988486 0.020564606 0.03436429 0.0063497312 -0.010465118 -0.034119915
0.039969943 0.029024882 -0.006268738 -0.028629137 -0.035189863 -0.0062722745 -0.035324756 -0.009471415
0.0077527696 0.04647345 -0.0074213636 0.0113689 -0.042580277 -0.051224776 -0.043463215 -0.065724105
0.015759256 0.019305902 0.006832164 -0.04542898 0.0009989786 -0.03791103 0.0045634923 0.013191628
-0.02295082 0.032613434 0.015264944 0.010998119 -0.005264855 0.025623806 -0.008796309 -0.004067488
-0.014802032 0.012037608 0.009757786 0.020979652 -0.007058019 0.022850664 -0.024860902 -0.008906947
-0.01133759 0.022225123 0.03146935 0.04092131 -0.012417502 -0.014244347 0.017028851 -0.041336972
-0.03305376 0.03757483 0.002476357 0.010061484 0.013714163 -0.034105785 0.020067316 -0.013076963
0.017761556 0.032760493 -0.042350084 0.025651846 -0.008798167 -0.02764433 -0.0045831534 0.011211653
-0.03133473 -0.02025282 0.0045040115 -0.0023648406 0.0003097608 0.039968375 0.041603826 0.011318189
0.032500774 0.03351174 -0.011095261 -0.002283151 -0.015216603 0.013526233 0.012821425 -0.0005755186
0.00322909 -0.03382377 0.009599571 -0.014319931 0.02004231 0.023332974 -0.010579055 -0.036362093
0.015407961 -0.0008313618 -0.016836027 0.0118437335 -0.04240072 0.03277102 -0.032933947 -0.018408092
0.014853613 -0.032315165 -0.03431771 0.0058035054 0.020742038 -0.016863948 -0.03637085 0.008050811
00000000: 55f5 0fbd ceb2 de39 6d63 2b3c a41f 56bc
00000010: 0717 d73b 9e14 11bd ea3e f43c e727 103d
00000020: acde 633c 9b01 163d fd2b 74bc 746d f9bc
00000030: 155a 30bd 67d7 813c bc6e 6abc de81 d33c
00000040: 200d 943c 69d7 e1bc 1d34 68bd 9a09 47bc
00000050: 33f1 a5bc 3095 813c 711b c0b9 71e1 273c
00000060: 9b35 bb3c 21c8 c63c 5e05 cd3c 95b6 9cbc
00000070: 41d2 e03b db97 01bd 9a23 f53c c7b9 18bd
00000080: d077 b13c 93cd 2c3d 881a cebc 7552 c93c
00000090: 200a 233c 2239 0abd 381f 2c3d 248e 913b
000000a0: fab1 4abc 3715 8a3c f85b 87bc 45a7 a2bc
000000b0: 83d1 9abb b66a d9bc edf7 c93c 3380 493b
000000c0: 74d5 d63c ec0b e73b c3f0 45bd 8518 f53c
000000d0: a0c4 a9bc bbaf babb 9925 533c 354c 343c
000000e0: cda9 873c 2385 bf3c a48a 613c 7477 1abd
000000f0: 6609 083d 9caa 72bc 687f bb3c f00a c8bb
00000100: 296c ca3a ac52 0dbc 31a7 48bc 03ec 95bc
00000110: b4a1 e5bb 5941 51bd 7e6e d13c 8b91 b0bc
00000120: 925d 2d3d b405 05bd d01b 9abc 59df 81bc
00000130: e049 373a 709d 0dbd 4766 b2bc 8064 04bb
00000140: dfb8 16bd 08da 56bc 65ab 6c3c 379c 0abd
00000150: 266c 2cbd 3984 12bd de1c 85bc 8ff5 e7bc
00000160: 6412 ea3c f986 52bc aebf 153c 7002 ad3c
00000170: b792 0abd 7d9b b63c 92a7 89bc e316 44bc
00000180: 0a1b 54ba fc6d d1bc 9972 2abd 8544 a33c
00000190: 420c a53c e042 13bd 87d2 03bc 6ea3 853c
000001a0: 0400 80bc f32d 113d e490 37bc 883f 07bd
000001b0: b42e b1bc 3aa5 183b 55a6 023d e0f9 f9bc
000001c0: b32b f03c 6f46 bdbc 3d16 ba3b 2a87 c4bc
000001d0: c7cb db3c ff15 15bd 88ff 313c b14f 3d3c
000001e0: 3dc8 06bd 9369 0cbd 6a9f f53b 3fd1 c8bc
000001f0: 689e 6fbc 755d 03bd 6896 cabc 00f1 1c3d
00000200: cbe2 25bd f5d7 c63c 6f05 7c3c 3c87 c0bc
00000210: c5b2 b13c 5cb9 a73c 2320 03bc 0759 af3c
00000220: 3920 9f3b 68f7 b6bc e8a9 10bd c5fe b03c
00000230: c012 bd3c 5047 133d 77a0 f73b 3ed9 353c
00000240: cd19 a23b 9b4e 9c3c 3d81 17bd 1b77 a83c
00000250: 92c1 0c3d 6811 d03b e375 2bbc 53c1 0bbd
00000260: 86b7 233d 97c5 ed3c fc69 cdbb a787 eabc
00000270: 3f23 10bd a787 cdbb b1b0 10bd fe2d 1bbc
00000280: f20a fe3b f25a 3e3d e92e f3bb 9f44 3a3c
00000290: a868 2ebd 12d1 51bd 7c06 32bd 5c9a 86bd
000002a0: 8e19 813c 6927 9e3c 58e0 df3b bd13 3abd
000002b0: 29f0 823a 9948 1bbd 5989 953b b321 583c
000002c0: 5c03 bcbc aa95 053d d119 7a3c 7431 343c
000002d0: ce84 acbb 04e9 d13c 651e 10bc 9048 85bb
000002e0: 3984 72bc 6339 453c 1fdf 1f3c 85dd ab3c
000002f0: f446 e7bb 5131 bb3c 17a9 cbbc 72ee 11bc
00000300: 4dc1 39bc 7611 b63c 01e6 003d 1b9d 273d
00000310: c772 4bbc 1f61 69bc 1780 8b3c f550 29bd
00000320: 6163 07bd 11e8 193d 604a 223b ecd8 243c
00000330: 5eb1 603c 82b2 0bbd 3664 a43c c240 56bc
00000340: af80 913c de2f 063d 4877 2dbd d223 d23c
00000350: 3026 10bc 5d76 e2bc 472e 96bb 15b1 373c
00000360: d958 00bd 3ee9 a5bc 6396 933b 71fb 1abb
00000370: 6467 a239 e1b5 233d c668 2a3d ed6f 393c
00000380: 881f 053d 9b43 093d e6c8 35bc eba0 15bb
00000390: 0f4f 79bc 229d 5d3c f410 523c 66de 16ba
000003a0: 249f 533b cb8a 0abd 8547 1d3c 259e 6abc
000003b0: c52f a43c cb24 bf3c c653 2dbc 6bf0 14bd
000003c0: ac71 7c3c bfef 59ba b5eb 89bc 380c 423c
000003d0: 61ac 2dbd e83a 063d bfe5 06bd 91cc 96bc
000003e0: 925c 733c e85c 04bd ba90 0cbd 552b be3b
000003f0: 35eb a93c 4326 8abc 9af9 14bd 8ce7 033c

channel_estimator.4.bias f4 [2]
-0.042010415 -0.013624874
00000000: 1d13 2cbd dd3a 5fbc

equalizer.0.weight f4 [64, 4, 3, 3]
0.010962461 -0.041709494 -0.12950398 -0.11685028 0.12331363 0.11413846 -0.078004934 0.11698199
0.06541326 0.039012965 -0.079584725 -0.14722344 0.087629534 -0.030637117 -0.08318955 0.0026284086
0.044085458 0.13864034 -0.12079767 0.0434845 0.014102463 -0.17714567 -0.14933875 0.03158928
0.0120394025 0.06433764 -0.14101692 0.036618497 -0.13038015 0.05323329 -0.009415768 0.06588022
-0.16631307 -0.10992338 0.016273484 0.039738994 -0.15662853 -0.097757295 -0.11621158 -0.121134564
0.05592856 0.1388029 0.08431995 -0.08091593 -0.124329194 -0.014396281 0.011491315 -0.11266161
0.13663378 0.049743265 -0.0871714 0.09745162 -0.038810674 0.007220621 -0.029422622 0.078081176
-0.047272008 -0.11902228 0.11236497 -0.16318808 -0.051916786 0.016433848 -0.11773624 0.108837254
-0.13827194 0.07215575 -0.14797644 -0.042412534 0.09811956 -0.011311333 0.12937494 0.019975627
-0.09681598 0.01698756 0.0060291444 -0.13923936 0.0567571 0.06484051 0.064521946 -0.023590544
0.16419722 0.027151218 -0.12771372 0.085931286 0.13128151 -0.044304274 -0.13023394 -0.14146565
-0.013404806 -0.07773214 -0.15076596 -0.07410155 -0.08884657 0.027240325 0.07435103 0.13234207
-0.14237224 -0.05313624 -0.15634076 -0.12345194 -0.025214668 -0.055944428 -0.052323718 0.12638894
0.12375956 0.069136366 0.0029095528 -0.11652969 -0.14532427 0.057649568 -0.14755456 0.0035330674
0.16676597 -0.154548 0.17303655 -0.07745231 0.058918934 -0.061677974 0.05912677 -0.10051747
0.10045058 -0.0406397 -0.17130679 0.026784597 0.11391909 -0.13815193 -0.07724758 0.104041636
0.017174998 0.012163497 0.042314593 0.15462151 -0.08086634 -0.08444364 0.13884175 -0.059988987
-0.07969393 0.093824826 0.033245083 -0.16039166 -0.14114754 -0.094669715 0.06726026 -0.058867194
0.07386255 -0.07914652 -0.06913319 0.056296684 0.009061135 0.14726724 -0.10696237 0.07090111
-0.15554671 0.09255039 0.029640472 0.15327796 -0.058000144 0.07073922 -0.10113623 -0.07874752
-0.13706568 -0.01881642 -0.036379408 0.14657122 -0.08157563 -0.10802679 0.07733719 -0.009930595
0.10424178 0.05649537 0.00043679524 0.12215343 -0.01017606 -0.11183169 -0.15334189 -0.09331216
0.15051655 0.07452183 -0.11972872 -0.09467423 0.052537493 -0.13732256 -0.049512174 -0.07167188
0.081963 -0.12933569 0.0032941385 -0.12317728 0.1598256 0.14539628 -0.08499887 -0.13663007
-0.1265411 0.08280095 0.117968835 0.15086152 -0.1540033 0.03032642 -0.12024486 -0.051315423
-0.036050286 -0.10118426 0.14040105 0.02961812 -0.13942844 0.058179673 0.13487522 0.032715384
-0.17111827 -0.083070725 0.097341545 -0.10890161 -0.013113893 0.045128442 -0.1305646 -0.092382886
0.07543086 0.04041446 0.04268334 0.059878085 0.04895778 -0.116587795 0.12545748 0.106780745
0.019766824 -0.10280202 0.03263757 -0.112541884 -0.16786405 -0.051178712 0.1490125 -0.082005255
0.016772658 0.10683941 0.022068558 0.090327084 0.002146834 -0.11732119 -0.12195837 0.026711283
-0.14660655 -0.1086337 -0.10509939 -0.038479332 0.023560146 0.040168516 0.087416805 0.024875268
-0.109461464 -0.08819663 -0.07833754 0.096838996 -0.13608672 0.075365186 0.015277736 0.1339708
00000000: e59b 333c 93d7 2abd b19c 04be 334f efbd
00000010: db8b fc3d 6dc1 e93d 0dc1 9fbd 4194 ef3d
00000020: 63f7 853d 0fcc 1f3d 51fd a2bd bec1 16be
00000030: 1d77 b33d b1fa fabc 485f aabd 6141 2c3b
00000040: f492 343d bcf7 0d3e c564 f7bd ce1c 323d
00000050: 040e 673c ad65 35be 42ec 18be c363 013d
00000060: ea40 453c 74c3 833d bd66 10be 47fd 153d
00000070: 6082 05be 260b 5a3d 9844 1abc 35ec 863d
00000080: f94d 2abe 821f e1bd f84f 853c 5bc5 223d
00000090: 3b63 20be fa34 c8bd 5600 eebd 6615 f8bd
000000a0: 5915 653d 5922 0e3e f0af ac3d 40b7 a5bd
000000b0: 4ea0 febd 61de 6bbc 1246 3c3c 21bb e6bd
000000c0: bae9 0b3e 98bf 4b3d eb86 b2bd b794 c73d
000000d0: f1f7 1ebd f69a ec3b b607 f1bc 06e9 9f3d
000000e0: 4ba0 41bd f4c1 f3bd 9b1f e63d c71a 27be
000000f0: b2a6 54bd 47a0 863c b31f f1bd 11e6 de3d
00000100: 2997 0dbe 65c6 933d 2387 17be c4b8 2dbd
00000110: e8f2 c83d 2b53 39bc dd7a 043e eda3 a33c
00000120: 7547 c6bd 7f29 8b3c 2190 c53b c394 0ebe
00000130: 227a 683d 1acb 843d 1524 843d f540 c1bc
00000140: 5123 283e 3b6c de3c 63c7 02be befc af3d
00000150: a96e 063e 6678 35bd 0c5c 05be 5fdc 10be
00000160: d59f 5bbc 0732 9fbd 6462 1abe 8ec2 97bd
00000170: 31f5 b5bd 1a27 df3c 5a45 983d ae84 073e
00000180: 07ca 11be 63a5 59bd cb17 20be 5fd4 fcbd
00000190: fe8e cebc fc25 65bd 6551 56bd 1a6c 013e
000001a0: a775 fd3d 5e97 8d3d 32ae 3e3b 1ea7 eebd
000001b0: e3cf 14be f421 6c3d 8b18 17be 098b 673b
000001c0: b3c4 2a3e d541 1ebe 7e30 313e 519f 9ebd
000001d0: fb54 713d 0ba2 7cbd e92e 723d 1adc cdbd
000001e0: 09b9 cd3d d075 26bd 0c6b 2fbe 5f6b db3c
000001f0: 694e e93d b377 0dbe fb33 9ebd c813 d53d
00000200: 95b2 8c3c 6749 473c 1152 2d3d 1a55 1e3e
00000210: 409d a5bd caf0 acbd 882c 0e3e 03b7 75bd
00000220: 9236 a3bd 3b27 c03d ff2b 083d b63d 24be
00000230: fb88 10be 32e2 c1bd bfbf 893d ba1e 71bd
00000240: 4045 973d 9217 a2bd b495 8dbd 5a97 663d
00000250: 2875 143c 39cd 163e 160f dbbd 9a34 913d
00000260: a347 1fbe 0f8b bd3d 93d0 f23c e6f4 1c3e
00000270: 8f91 6dbd b9df 903d 8320 cfbd 6146 a1bd
00000280: f25a 0cbe e524 9abc 9302 15bd c416 163e
00000290: 2011 a7bd 263d ddbd f662 9e3d efb3 22bc
000002a0: b77c d53d b067 673d aa01 e539 942b fa3d
000002b0: 7db9 26bc 0308 e5bd a805 1dbe 721a bfbd
000002c0: 0321 1a3e e79e 983d 5534 f5bd 90e4 c1bd
000002d0: 8e31 573d 499e 0cbe 47cd 4abd b5c8 92bd
000002e0: 38dc a73d 9370 04be 79e2 573b 5f44 fcbd
000002f0: 52a9 233e c3e2 143e e313 aebd c1e8 0bbe
00000300: fd93 01be 8b93 a93d a599 f13d 717b 1a3e
00000310: 0bb3 1dbe 1d6f f83c f042 f6bd 1f30 52bd
00000320: 77a9 13bd b139 cfbd 4bc5 0f3e b3a1 f23c
00000330: 54c6 0ebe cf4d 6e3d bb1c 0a3e 9100 063d
00000340: a139 2fbe fc20 aabd 015b c73d cf07 dfbd
00000350: a7db 56bc 9ad8 383d bab2 05be 3d33 bdbd
00000360: 7f7b 9a3d a289 253d bad4 2e3d b942 753d
00000370: f487 483d 95c5 eebd ed77 003e ddaf da3d
00000380: 09ee a13c de89 d2bd f9ae 053d 5c7c e6bd
00000390: 8ee4 2bbe c5a0 51bd bc96 183e 5ff2 a7bd
000003a0: d066 893c 9fce da3d 1fc9 b43c 68fd b83d
000003b0: e6b1 0c3b 1846 f0bd 4fc5 f9bd 9fd1 da3c
000003c0: 0720 16be 587b debd 593e d7bd 819c 1dbd
000003d0: 3501 c13c be87 243d 9507 b33d 38c7 cb3c
000003e0: 552d e0bd 6fa0 b4bd 6f6f a0bd 8653 c63d
000003f0: 515a 0bbe 1059 9a3d 784f 7a3c a42f 093e

equalizer.0.bias f4 [64]
0.12646687 -0.09381875 -0.028413279 0.15228154 -0.14326987 0.14022475 0.03900129 0.16895844
0.082520805 -0.034694057 -0.05504659 -0.057095245 -0.11487399 -0.049519937 0.055524413 0.1667821
-0.0029714638 -0.011817762 0.010336718 -0.1610762 -0.06261308 0.028199041 -0.14893728 0.15021594
0.09621904 0.13007356 -0.032973994 -0.13263139 0.09023403 -0.04278863 0.07902689 0.08896095
-0.115749136 0.14926082 0.13285291 -0.041979156 -0.01631482 -0.09528019 0.067640945 -0.029001046
-0.10430804 0.0928259 0.20656392 0.039523542 0.09287124 0.13053285 0.07283721 -0.09888557
0.09709248 0.19046687 0.13024026 0.18077037 0.14800385 0.09571865 0.018482653 -0.032086886
-0.034417734 0.13821751 -0.11717002 -0.081983306 -0.02823303 0.14125064 0.12505855 0.029023591
00000000: 8880 013e 0b24 c0bd f7c2 e8bc b1ef 1b3e
00000010: 56b5 12be 1497 0f3e d1bf 1f3d 7103 2d3e
00000020: ab00 a93d 5b1b 0ebd 8878 61bd b4dc 69bd
00000030: 0e43 ebbd 6bd5 4abd 916d 633d edc8 2a3e
00000040: e4bc 42bb 499f 41bc 565b 293c 29f1 24be
00000050: 493b 80bd ad01 e73c 0483 18be 35d2 193e
00000060: 7d0e c53d 0132 053e bd0f 07bd 86d0 07be
00000070: 9ecc b83d 2143 2fbd dad8 a13d 2931 b63d
00000080: e20d edbd d4d7 183e 980a 083e 56f2 2bbd
00000090: a8a6 85bc 4322 c3bd 5687 8a3d 9a93 edbc
000000a0: 749f d5bd 811b be3d 7e85 533e 70e3 213d
000000b0: 4733 be3d 67aa 053e ad2b 953d 8584 cabd
000000c0: 6cd8 c63d bf09 433e b45d 053e de1b 393e
000000d0: 528e 173e 2408 c43d ef68 973c 8a6d 03bd
000000e0: 9cf9 0cbd e488 0d3e d6f6 efbd dde6 a7bd
000000f0: f548 e7bc 02a4 103e 590f 003e e2c2 ed3c

equalizer.2.weight f4 [64, 64, 3, 3]
-0.018496765 -0.019519582 -0.0030674161 -0.026594672 0.024187887 -0.005301185 -0.024052616 0.025372295
0.007519859 -0.045107547 -0.02935942 0.016865248 -0.0065422878 0.014486249 -0.029048724 -0.0063480944
-0.04942623 0.019715419 0.026990516 -0.044770736 -0.02993723 -0.023451367 0.020977953 -0.016515447
-0.01567901 0.029603131 0.024544964 -0.010305724 -0.012074992 0.0121825915 -0.024652889 0.003148634
0.024383882 -0.0014154194 -0.0009236662 -0.02189005 -0.03193521 -0.006833089 -0.020070186 -0.009759765
0.017822856 -0.04496517 -0.036593247 0.0052244584 0.012284342 0.01609012 -0.032602422 -0.00051581254
0.025540752 0.032752402 0.0029624472 -0.018408468 0.022313608 0.031040093 -0.022681724 0.0012369341
0.013814571 -0.022707228 0.0028326116 0.018215708 0.023037832 -0.019602329 0.034854993 -0.0017485645
0.032908723 0.012183006 -0.03396423 0.014118269 -0.014249287 0.027447108 0.02740492 -0.031748846
-0.035738386 0.028557759 -0.027595863 -0.013434642 -0.031852867 -0.022510726 -0.016027287 -0.014156636
-0.026889786 -0.024287265 -0.03747845 0.011366976 0.0072389166 0.03622407 -0.019658126 -0.0041647744
-0.03052752 0.023879975 -0.0006445661 -0.029474683 0.016938245 -0.04442583 -0.01913072 0.00074632216
-0.036136642 0.024145402 0.0021617513 -0.045136932 -0.00992439 0.02892219 0.035079733 0.030927153
0.030143594 0.020564623 0.03125027 -0.0037428422 0.03092304 0.021023847 -0.011055562 0.018652478
0.021790674 -0.013840831 -0.012893432 -0.015992574 0.027542593 -0.037485287 0.038230933 -0.035730906
0.013155347 -0.016371466 0.014010575 -0.025195476 -0.03775015 0.024666881 -0.017731134 0.035915606
0.018776556 -0.04040243 -0.026588256 -0.011504611 -0.040774696 0.043432254 -0.016262054 0.021949068
-0.040045183 -0.023978578 0.022314882 0.021814631 -0.035281703 0.012263413 -0.044805344 0.015950821
-0.035988312 0.030211287 -0.03044131 -0.021728903 0.01836198 0.017094815 -0.022662971 0.053967685
0.035694662 0.011548014 -0.039880585 0.025107957 -0.022217495 -0.006952519 0.021498762 -0.007243242
-0.00935075 -0.014616808 -0.007720804 -0.00092415523 -0.004338855 -0.0104872435 -0.008176748 -0.04064038
0.016704384 -0.043179028 -0.043832224 -0.020070586 0.041136876 -0.0071691503 0.01770068 -0.033407807
-0.026073769 -0.018136552 -0.005587293 0.04277063 -0.027830023 -0.019030608 -0.0051951474 0.03046466
-0.037468813 0.031148037 -0.014518132 0.008706703 -0.0025568653 -0.021940192 -0.009536586 0.0056240116
-0.042843923 -0.017182512 0.003908347 -0.027893433 -0.0048778774 0.01527713 -0.04257207 0.0038424972
-0.044128213 -0.021379203 -0.037543718 -0.0068401024 -0.003905306 -0.013290121 -0.035064094 -0.0053027277
-0.036499757 0.034950804 -0.03404249 0.0047146427 -0.044010937 -0.013700807 -0.014310221 -0.040228367
-0.024042305 -0.03874774 -0.040017202 0.013204071 -0.004319424 -0.018745214 0.038740255 0.0012837395
0.016173057 0.025224674 -0.028024536 -0.012866067 0.033548344 0.022355663 -0.011364401 0.034197457
-0.013604674 0.022392161 0.012492977 0.012426833 0.018285276 0.024862044 -0.01196205 0.018404685
-0.033749502 -0.023997841 -0.038637776 -0.01677944 0.028224884 0.0065568555 -0.0054936544 0.027874442
0.029013267 0.0070020165 0.010861322 -0.04303391 0.0051992126 -0.040697504 -0.00071805244 -0.010428076
00000000: 8786 97bc 88e7 9fbc b406 49bb 12dd d9bc
00000010: ad25 c63c 90b5 adbb fe09 c5bc 8fd9 cf3c
00000020: 2669 f63b b1c2 38bd 2b83 f0bc fd28 8a3c
00000030: b060 d6bb bb57 6d3c 97f7 edbc ad03 d0bb
00000040: 2973 4abd 3b82 a13c 371b dd3c 8561 37bd
00000050: ec3e f5bc 151d c0bc f5d9 ab3c 674b 87bc
00000060: 4471 80bc 4482 f23c 8512 c93c 57d9 28bc
00000070: 30d6 45bc 7e99 473c dbf4 c9bc 5059 4e3b
00000080: b5c0 c73c 9885 b9ba 3022 72ba c352 b3bc
00000090: 7fce 02bd 1be8 dfbb 3b6a a4bc 6ce7 1fbc
000000a0: 3d01 923c 662d 38bd cde2 15bd ef31 ab3b
000000b0: 4444 493c 6dcf 833c 1e8a 05bd 9837 07ba
000000c0: d73a d13c 6227 063d 9e25 423b 5bcd 96bc
000000d0: 07cb b63c cb47 fe3c 06cf b9bc 9f20 a23a
000000e0: 8356 623c 8204 babc 56a3 393b 1c39 953c
000000f0: d6b9 bc3c 1095 a0bc 1cc4 0e3d 1730 e5ba
00000100: 4ccb 063d 3b9b 473c 141e 0bbd 5050 673c
00000110: d775 69bc c2d8 e03c 4880 e03c 140b 02bd
00000120: 6a62 12bd f6f1 e93c b810 e2bc f91c 5cbc
00000130: 2778 02bd 6a68 b8bc a84b 83bc 3cf1 67bc
00000140: f847 dcbc 16f6 c6bc 0183 19bd 8e3c 3a3c
00000150: 6f34 ed3b b15f 143d 140a a1bc a978 88bb
00000160: da14 fabc f09f c33c 19f8 28ba e474 f1bc
00000170: 13c2 8a3c dcf7 35bd 07b8 9cbc d5a4 433a
00000180: 0404 14bd 94cc c53c 2bac 0d3b 81e1 38bd
00000190: e999 22bc 3bee ec3c c4af 0f3d f15a fd3c
000001a0: b3ef f63c 2477 a83c 4800 003d 794a 75bb
000001b0: 5152 fd3c 343a ac3c 6322 35bc 15cd 983c
000001c0: 5b82 b23c a7c4 62bc f93e 53bc dc02 83bc
000001d0: 01a1 e13c 2c8a 19bd 0a98 1c3d 925a 12bd
000001e0: 8689 573c 741d 86bc 9c8c 653c be66 cebc
000001f0: e79f 1abd 3312 ca3c e240 91bc 3e1c 133d
00000200: 4bd1 993c 057d 25bd 9dcf d9bc d67d 3cbc
00000210: 5e03 27bd 05e6 313d 0038 85bc 88ce b33c
00000220: 6b06 24bd b96e c4bc b3cd b63c 99b4 b23c
00000230: 8c83 10bd 7bec 483c cf85 37bd 4cab 823c
00000240: 7b68 13bd a97d f73c 0e60 f9bc d000 b2bc
00000250: dd6b 963c 6d0a 8c3c b2a7 b9bc 380d 5d3d
00000260: 9134 123d e233 3d3c d359 23bd 34af cd3c
00000270: 7701 b6bc f5d1 e3bb 2c1e b03c b858 edbb
00000280: e333 19bc 567b 6fbc ccfe fcbb 0243 72ba
00000290: f42c 8ebb b0d2 2bbc c4f7 05bc 8776 26bd
000002a0: a2d7 883c 7edc 30bd 6b89 33bd 126b a4bc
000002b0: 247f 283d 31eb eabb 0401 913c a0d6 08bd
000002c0: a898 d5bc 1b93 94bc 9c15 b7bb 4230 2f3d
000002d0: cafb e3bc 14e6 9bbc 0e3c aabb 0691 f93c
000002e0: e678 19bd 2b2a ff3c 76dd 6dbc 8fa6 0e3c
000002f0: 1591 27bb ebbb b3bc 573f 1cbc a149 b83b
00000300: 1c7d 2fbd 57c2 8cbc 9711 803b c580 e4bc
00000310: 9ad6 9fbb ed4c 7a3c 0d60 2ebd 68d2 7b3b
00000320: c9bf 34bd 7023 afbc 71c7 19bd f022 e0bb
00000330: 2af0 7fbb cfbe 59bc 5e9f 0fbd 81c2 adbb
00000340: c580 15bd 9328 0f3d 2370 0bbd 4a7d 9a3b
00000350: d044 34bd 5979 60bc 6b75 6abc 80c6 24bd
00000360: 5ef4 c4bc f3b5 1ebd 14e9 23bd e355 583c
00000370: f489 8dbb 908f 99bc 1aae 1e3d 2643 a83a
00000380: 5c7d 843c faa3 ce3c b693 e5bc 32cc 52bc
00000390: fd69 093d 3923 b73c c131 3abc a212 0c3d
000003a0: 23e6 5ebc c46f b73c 58af 4c3c ea99 4b3c
000003b0: 01cb 953c 7cab cb3c 79fc 43bc 6cc5 963c
000003c0: eb3c 0abd 1f97 c4bc a542 1ebd 0975 89bc
000003d0: df37 e73c e4da d63b 1d04 b4bb f158 e43c
000003e0: 3bad ed3c 2c71 e53b b0f3 313c 5344 30bd
000003f0: 285e aa3b 6db2 26bd af3b 3cba 85da 2abc

equalizer.2.bias f4 [64]
-0.037920207 -0.017366927 -0.0016257659 -0.00044481948 0.045284104 0.014711912 -0.025024572 -0.018531308
-0.034117933 -0.0058818804 0.0413801 -0.007988081 0.01775862 -0.006204941 0.007050871 0.0065108333
-0.02259709 -0.005901132 -0.027991563 0.01859084 0.0612046 -0.014023681 0.024958266 0.041898996
0.0135891335 -0.027329693 -0.028223244 -0.032349102 -0.032135453 -0.0037841315 0.037261233 -0.019068744
0.010300876 0.037452884 0.0064001773 -0.02435694 -0.040101115 0.022652354 0.034615874 -0.029440429
0.001831076 0.03403212 -0.01744422 -0.043348476 -0.012606 -0.007737305 0.0027808095 0.0007494538
-0.0050650164 0.038124416 -0.017336251 -0.047358394 0.017506089 0.016645724 -0.0050482885 -0.026922898
-0.01593072 -0.0025456802 -0.028426932 -0.028107675 0.011993926 -0.0035824282 -0.024287315 -0.0010329634
00000000: 3852 1bbd 1645 8ebc a717 d5ba a936 e9b9
00000010: d37b 393d 3b0a 713c 5500 cdbc f8ce 97bc
00000020: 3fbf 0bbd cabc c0bb 2e7e 293d 71e0 02bc
00000030: 877a 913c d152 cbbb fe0a e73b d458 d53b
00000040: 881d b9bc 485e c1bb 904e e5bc d14b 983c
00000050: adb1 7a3d 95c3 65bc 4775 cc3c 489e 2b3d
00000060: f5a4 5e3c 85e2 dfbc 6f34 e7bc 7e80 04bd
00000070: 77a0 03bd 31ff 77bb 3c9f 183d 0e36 9cbc
00000080: 01c5 283c 3268 193d 94b8 d13b 3588 c7bc
00000090: 1141 24bd 6e91 b93c 60c9 0d3d 0e2d f1bc
000000a0: b700 f03a 4465 0b3d 2ee7 8ebc 2c8e 31bd
000000b0: 6589 4ebc 3889 fdbb 3e3e 363b fe76 443a
000000c0: 70f8 a5bb 5928 1c3d c104 8ebc e0fa 41bd
000000d0: ee68 8f3c 9d5c 883c 1d6c a5bb 698d dcbc
000000e0: 2481 82bc 6dd5 26bb 99df e8bc 1142 e6bc
000000f0: 2c82 443c 2cc7 6abb 31f6 c6bc 8064 87ba

equalizer.4.weight f4 [2, 64, 3, 3]
-0.00030992902 0.0078026843 0.01506602 0.028088083 -0.0093636345 0.032889962 -0.009958727 0.03047322
-0.044863548 -0.032032646 0.010000918 -0.02752061 0.004180809 0.010293239 0.0066329404 -0.021300685
-0.00482736 -0.03718621 -0.0135683 0.02378158 -0.02637184 -0.005261078 -0.010434995 0.034776237
0.023969421 0.014130329 -0.042357877 -0.016659332 0.03614919 -0.010195179 -0.035089575 -0.008346928
0.026005706 0.010772279 -0.023639625 -0.040967792 0.031147001 -0.025676925 0.011451623 -0.044065285
-0.011698621 -0.029239142 0.0049839765 -0.025704945 -0.03521445 -0.018672174 -0.03790547 0.0067204707
0.011830423 -0.0041128 -0.022044484 0.028531913 -0.008914749 -0.03667983 -0.006431441 -0.02637158
-0.009484841 -0.032060057 0.030076595 -0.004987192 0.033904947 -0.0007880357 0.015831761 -0.03528641
0.018808207 -0.014065018 -0.03054787 -0.0131715415 -0.02504648 -0.034553785 0.03582765 0.021992084
0.02675491 -0.028251266 0.009646378 -0.029694078 -0.049512267 -0.026368005 -0.023384942 0.01393255
0.01461526 0.016163448 0.015896399 0.023074126 0.025114004 -0.02837843 -0.041374326 0.0036200164
0.010963987 -0.0445608 -0.040865406 -0.043480914 -0.023187755 -0.028903788 -0.009594877 -0.024101641
-0.038175814 -0.029098036 -0.0039435383 -0.0060471823 0.020227611 -0.032515354 0.03280763 -0.0047230786
-0.039706647 -0.027678413 -0.010084157 -0.0357991 -0.012105125 -0.013604024 0.038085517 -0.03885066
0.020086398 -0.0264061 -0.0322915 -0.010491889 -0.031201527 0.019302413 -0.0443665 0.022731582
-0.01755868 -0.012785349 0.025201019 -0.013273438 0.016721155 0.036143206 0.010057258 -0.020180821
-0.036093842 -0.05164698 -0.05296692 -0.0063490947 -0.0030823324 0.0011111571 0.008915439 0.008010825
0.02936553 -0.0074430625 0.020642264 0.034776118 0.018053696 0.009519382 0.007925058 0.027068088
-0.0060185525 -0.012481128 0.00044452597 -0.009260877 0.0047576595 0.018616293 -0.034112047 -0.02064338
-0.024570059 -0.0010812933 0.010137621 -0.0065261233 -0.043716986 -0.041685827 -0.021061111 -0.012002763
0.008296793 -0.019795857 -0.021791076 -0.035343565 -0.034516893 -0.009160822 0.022852708 0.028429475
0.02300729 -0.00100253 0.013499207 -0.002085805 0.025034871 0.015776109 -0.03512051 0.029291062
0.013193719 -0.0064942627 -0.012410631 0.011803229 -0.029542409 0.028901177 -0.034262545 -0.035658684
-0.036985375 0.001676863 -0.035556003 0.011754347 -0.04746128 0.034862556 0.018383224 0.011913898
-0.047468375 -0.016844083 0.027249403 0.031291243 -0.020212555 0.002444511 0.010420822 0.001110849
-0.038658183 0.022880347 -0.039063636 0.028474288 -0.03412964 0.031815436 -0.023892077 -0.046502024
-0.030278234 0.028283572 -0.050552085 0.017202048 -0.029386545 -0.043684073 0.00420764 0.025758708
0.011986917 -0.022748478 0.032436583 -8.386843e-05 -0.03582168 0.024981484 -0.026670404 -0.034481667
0.03214627 0.01034253 0.017991971 0.018775858 -0.029785218 -0.025122184 0.034527026 0.03334922
-0.034947183 0.030754954 -0.0056042722 -0.0009953168 0.0050845356 -0.012608967 0.021209812 0.034038823
-0.029813962 -0.03782918 0.024769016 -0.010054081 -0.013265613 0.004073377 -0.019271843 -0.008322579
0.0033935634 0.03213296 -0.035955753 -0.021633666 0.03411332 0.0021356093 -0.010021464 -0.03246488
00000000: f87d a2b9 a9ad ff3b 78d7 763c fb18 e63c
00000010: ee69 19bc a0b7 063d ee29 23bc f9a2 f93c
00000020: d7c2 37bd aa34 03bd e4da 233c e772 e1bc
00000030: 2bff 883b f9a4 283c 2359 d93b c67e aebc
00000040: d52e 9ebb 9150 18bd 934d 5ebc 97d1 c23c
00000050: c209 d8bc 1f65 acbb 8bf7 2abc 8771 0e3d
00000060: 855b c43c e582 673c 747f 2dbd 2779 88bc
00000070: 2c11 143d ae09 27bc 16ba 0fbd 8ec1 08bc
00000080: eb09 d53c 377e 303c e3a7 c1bc d8cd 27bd
00000090: ff27 ff3c 6a58 d2bc 979f 3b3c cd7d 34bd
000000a0: 93ab 3fbc ed86 efbc a050 a33b 2d93 d2bc
000000b0: 073d 10bd 63f6 98bc c442 1bbd 6537 dc3b
000000c0: 64d4 413c abc4 86bb a296 b4bc c2bb e93c
000000d0: 2b0f 12bc 973d 16bd d6be d2bb 3609 d8bc
000000e0: 4e66 1bbc 6851 03bd 3163 f63c 996b a3bb
000000f0: eadf 0a3d 2e94 4eba 9cb1 813c 7c88 10bd
00000100: ab13 9a3c f670 66bc 873f fabc 73cd 57bc
00000110: 472e cdbc 4588 0dbd 04c0 123d be28 b43c
00000120: 1d2d db3c 336f e7bc d80b 1e3c ff40 f3bc
00000130: 60cd 4abd b701 d8bc c791 bfbc 5a45 643c
00000140: d874 6f3c 3569 843c 2a39 823c f305 bd3c
00000150: e2bb cd3c e279 e8bc 2078 29bd cc3d 6d3b
00000160: 4ba2 333c 6385 36bd 7c62 27bd 0b19 32bd
00000170: 3ff4 bdbc a3c7 ecbc d533 1dbc ce70 c5bc
00000180: 3e5e 1cbd 015f eebc cc38 81bb 7127 c6bb
00000190: 60b4 a53c d22e 05bd 4b61 063d 0ec4 9abb
000001a0: 70a3 22bd d7bd e2bc 0538 25bc 14a2 12bd
000001b0: 9354 46bc 6ae3 5ebc 8fff 1b3d df21 1fbd
000001c0: 3b8c a43c 9b51 d8bc 1844 04bd 2ce6 2bbc
000001d0: 589a ffbc 1820 9e3c a6b9 35bd 9537 ba3c
000001e0: 39d7 8fbc a479 51bc 5e72 ce3c d678 59bc
000001f0: cefa 883c e60a 143d 33c7 243c 4052 a5bc
00000200: 23d7 13bd c98b 53bd d7f3 58bd 110c d0bb
00000210: f500 4abb 3fa4 913a 1012 123c d63f 033c
00000220: fb8f f03c efe4 f3bb f719 a93c 6771 0e3d
00000230: 58e5 933c 2ff7 1b3c 1ad8 013c e5bd dd3c
00000240: 4737 c5bb a57d 4cbc 440f e939 efba 17bc
00000250: 24e6 9b3b 3281 983c 13b9 0bbd 4e1c a9bc
00000260: 2647 c9bc 2fba 8dba 4418 263c 17d9 d5bb
00000270: 9510 33bd c2be 2abd 5a88 acbc 3da7 44bc
00000280: 46ef 073c ec2a a2bc 3383 b2bc 6ac4 10bd
00000290: 9661 0dbd 4617 16bc 9a35 bb3c eee4 e83c
000002a0: c979 bc3c 5367 83ba c72b 5d3c 00b2 08bb
000002b0: ee15 cd3c e63c 813c 86da 0fbd cff3 ef3c
000002c0: 782a 583c d3cd d4bb f655 4bbc 5562 413c
000002d0: ec02 f2bc 29c2 ec3c e256 0cbd d70e 12bd
000002e0: fa7d 17bd 2fca db3a 2ca3 11bd 4e95 403c
000002f0: c266 42bd 0acc 0e3d 6a98 963c 8332 433c
00000300: 336e 42bd 9afc 89bc 243a df3c 3f2b 003d
00000310: cd94 a5bc 1734 203b 18bc 2a3c e899 913a
00000320: 0b58 1ebd 916f bb3c 3101 20bd e942 e93c
00000330: 85cb 0bbd e750 023d 51b9 c3bc e878 3ebd
00000340: 0f0a f8bc f3b2 e73c b40f 4fbd 4feb 8c3c
00000350: 0dbc f0bc 12ee 32bd 3ee0 893b ed03 d33c
00000360: c664 443c 045b babc 39dc 043d 85e2 afb8
00000370: c1b9 12bd f8a5 cc3c e47b dabc a63c 0dbd
00000380: cfab 033d b773 293c e663 933c d4cf 993c
00000390: 2100 f4bc 0acd cdbc 366c 0d3d 3199 083d
000003a0: c724 0fbd d0f1 fb3c 0ba4 b7bb 4a75 82ba
000003b0: 2d9c a63b d795 4ebc 33c0 ad3c 4b6c 0b3d
000003c0: 693c f4bc c5f2 1abd 64e8 ca3c dfb9 24bc
000003d0: 0358 59bc f679 853b fcdf 9dbc 6d5b 08bc
000003e0: 8c66 5e3b da9d 033d 5746 13bd 1639 b1bc
000003f0: 69ba 0b3d 94f5 0b3b 1131 24bc e5f9 04bd

equalizer.4.bias f4 [2]
-0.024247518 -0.030382194
00000000: bba2 c6bc 14e4 f8bc

demapper.weight f4 [4, 2]
-0.72126895 -0.062507324 0.28480208 -0.4062445 -0.35269582 0.3398102 -0.43794802 0.072263114
00000000: 15a5 38bf d703 80bd 94d1 913e 47ff cfbe
00000010: 8c94 b4be 9afb ad3e b93a e0be affe 933d

demapper.bias f4 [4]
-0.45399696 0.17874172 0.2758665 -0.11320671
00000000: 4a72 e8be 1208 373e 603e 8d3e ebd8 e7bd
